Endgame/pytorch_models/TD3_best_kivy-car_actor.pth (torch_old, 93531 bytes, 28 tensors)

conv1.0.weight f4 [16, 1, 3, 3]
-0.08743828 0.2434294 -0.21688786 0.14316674 0.24264665 -0.007542835 0.03278482 -0.24481511
-0.1395267 -0.28558096 0.20039465 -0.116403915 0.17154755 0.2590785 0.12997855 -0.012053404
0.23570606 -0.25737184 0.11793433 -0.32114947 -0.25246143 -0.241805 0.2053059 0.21465184
-0.08206622 -0.3130135 -0.0572545 -0.27998945 -0.3001076 0.2851875 -0.004433255 0.2270898
-0.2155997 0.045138646 -0.036221556 -0.3120348 0.22392264 -0.14048615 0.18305796 0.024192473
0.06328312 -0.0813718 0.32046226 0.23902026 -0.021053938 -0.24227175 -0.2699121 0.2999871
-0.110485405 -0.17524572 -0.24779235 0.19296616 -0.14200799 -0.21276268 0.17861289 -0.0024474799
0.010627364 -0.045878 -0.23512001 0.049905248 -0.2979636 0.09393209 0.1645251 0.19926569
0.153416 -0.104028895 0.16478105 0.15213984 -0.034162175 -0.010269043 -0.25434119 0.017008718
0.010283257 0.21826331 0.32949883 -0.32430562 -0.2398536 -0.027972164 -0.032831665 0.20235173
-0.076928794 -0.18743758 0.030999742 -0.012627358 -0.18083496 0.14437813 0.22476463 -0.16141488
0.3246154 -0.28074312 -0.11717496 0.18029764 0.30095395 -0.2651729 -0.19717446 -0.17988476
0.0696716 -0.11609612 0.28101978 -0.100575514 -0.016238706 0.11395358 0.29720002 -0.25079182
-0.00798555 -0.26479372 0.07891838 -0.12510987 0.19374886 -0.16445918 0.2187297 0.27840006
-0.33023307 -0.26864073 -0.2129753 0.292373 -0.005133691 0.24210872 0.16715649 -0.29605663
0.252932 0.22242747 0.036051452 -0.27963963 -0.17902613 -0.18784463 0.31362215 -0.22411224
-0.038127165 0.034936525 0.12574361 0.012849021 0.19934095 -0.17210717 0.07839352 0.074385114
0.28757542 0.029294115 -0.10587323 0.1615542 0.24608459 0.21603136 -0.22512734 -0.15988238
00000000: d712 b3bd 8e45 793e da17 5ebe 4d9a 123e
00000010: 5d78 783e e329 f7bb 6049 063d d0b0 7abe
00000020: 16e0 0ebe ab37 92be 4134 4d3e 2d65 eebd
00000030: 29aa 2f3e f0a5 843e 1919 053e a47b 45bc
00000040: ee5c 713e 3ec6 83be 8e87 f13d b46d a4be
00000050: a042 81be bb9b 77be b63b 523e b1cd 5b3e
00000060: 5612 a8bd 4e43 a0be b283 6abd c75a 8fbe
00000070: b4a7 99be 1904 923e d744 91bb 3b8a 683e
00000080: 2bc6 5cbe 4de3 383d 0e5d 14bd 06c3 9fbe
00000090: fa4b 653e 9adb 0fbe 8c73 3b3e 4b2f c63c
000000a0: 959a 813d 42a6 a6bd a113 a43e bac1 743e
000000b0: 4f79 acbc 1616 78be eb31 8abe e997 993e
000000c0: 2c46 e2bd 9d73 33be 47bd 7dbe ec98 453e
000000d0: 8b6a 11be 76de 59be 4ce6 363e e665 20bb
000000e0: 651e 2e3c 92ea 3bbd 4dc3 70be 7269 4c3d
000000f0: af8e 98be 785f c03d 4579 283e 4e0c 4c3e
00000100: 1519 1d3e 1a0d d5bd 5dbc 283e 8cca 1b3e
00000110: a3ed 0bbd 7d3f 28bc 0239 82be de55 8b3c
00000120: 1b7b 283c 6b80 5f3e 12b4 a83e 630b a6be
00000130: 2f9c 75be e125 e5bc 7f7a 06bd 4b35 4f3e
00000140: d88c 9dbd a3ef 3fbe 2cf3 fd3c fae2 4ebc
00000150: cd2c 39be dcd7 133e b328 663e f149 25be
00000160: fd33 a63e 90bd 8fbe 6df9 efbd f29f 383e
00000170: a316 9a3e bec4 87be 1ae8 49be b633 38be
00000180: fcaf 8e3d cdc3 edbd d3e1 8f3e 89fa cdbd
00000190: 0907 85bc 7f60 e93d 9a2a 983e c967 80be
000001a0: d3d5 02bc 0b93 87be f69f a13d cd1c 00be
000001b0: 1a66 463e fd67 28be aefa 5f3e 748a 8e3e
000001c0: 4f14 a9be 478b 89be 3216 5abe eab1 953e
000001d0: 8538 a8bb 59eb 773e 122b 2b3e bc94 97be
000001e0: 4e80 813e 07c4 633e b0aa 133d ed2c 8fbe
000001f0: a052 37be 585a 40be 1593 a03e ae7d 65be
00000200: 3b2b 1cbd 9a19 0f3d efc2 003e b384 523c
00000210: 0920 4c3e dd3c 30be c88c a03d 3957 983d
00000220: 163d 933e 36fa ef3c 10d4 d8bd 776e 253e
00000230: 99fd 7b3e 5337 5d3e c887 66be 35b8 23be

conv1.0.bias f4 [16]
0.16533057 -0.20099762 -0.14304149 0.31510302 -0.17045614 0.17178926 -0.15968204 -0.006682507
0.21739186 -0.2803097 -0.22869627 0.11851371 -0.27067494 0.3176833 0.27279636 -0.2913783
00000000: 6b4c 293e 52d2 4dbe 7879 12be 2f55 a13e
00000010: 0e8c 2ebe 86e9 2f3e b083 23be eff8 dabb
00000020: f99b 5e3e c184 8fbe 5b2f 6abe 51b7 f23d
00000030: e895 8abe 63a7 a23e f7ab 8b3e 892f 95be

conv1.1.weight f4 [16]
0.99935913 0.99935913 0.99935913 0.99935913 0.99935913 0.99935913 0.99935913 0.99935913
0.99935913 0.99935913 0.99935913 0.99935913 0.99935913 0.99935913 0.99935913 0.99935913
00000000: 00d6 7f3f 00d6 7f3f 00d6 7f3f 00d6 7f3f
00000010: 00d6 7f3f 00d6 7f3f 00d6 7f3f 00d6 7f3f
00000020: 00d6 7f3f 00d6 7f3f 00d6 7f3f 00d6 7f3f
00000030: 00d6 7f3f 00d6 7f3f 00d6 7f3f 00d6 7f3f

conv1.1.bias f4 [16]
0.00047080618 0.00035299695 -0.00014697581 0.00048238115 0.00045409874 0.0005673964 0.00044523014 -0.0006294778
-0.00031220957 -0.00050369755 0.0005940417 0.00014822576 -0.00034800722 0.00040030867 -0.00025935797 0.00062931795
00000000: 89d6 f639 7312 b939 851d 1ab9 1ae8 fc39
00000010: 1a14 ee39 54bd 143a c76d e939 8a03 25ba
00000020: 0fb0 a3b9 920a 04ba 77b9 1b3a 0d6d 1b39
00000030: bd74 b6b9 85e0 d139 70fa 87b9 d0f8 243a

conv1.1.running_mean f4 [16]
0.15643416 -0.107144624 -0.33635676 0.15770808 0.046317875 -0.07505145 -0.18484384 0.06606916
0.22656818 -0.30187815 -0.24485576 0.04291082 -0.27560887 0.30887753 0.36042392 -0.15347587
00000000: 4730 203e a46e dbbd f436 acbe 3a7e 213e
00000010: d0b7 3d3d 93b4 99bd b447 3dbe 454f 873d
00000020: 7d01 683e c68f 9abe 78bb 7abe 42c3 2f3d
00000030: 9b1c 8dbe 3225 9e3e 7c89 b83e c728 1dbe

conv1.1.running_var f4 [16]
0.0011309137 0.022336729 0.08549735 0.0563279 0.10670858 0.13831656 0.0028477418 0.014670541
0.008608323 0.0070259226 0.0054134526 0.012954868 0.002670158 0.0033631094 0.021200817 0.044999648
00000000: 2b3b 943a 84fb b63c 3c19 af3d 16b8 663d
00000010: 078a da3d dba2 0d3e 2ea1 3a3b b55c 703c
00000020: ec09 0d3c b639 e63b 5563 b13b a840 543c
00000030: d1fd 2e3b 9d67 5c3b 56ad ad3c 8d51 383d

conv2.0.weight f4 [16, 16, 3, 3]
-0.043883245 0.024893204 0.05348664 -0.014151979 0.026316058 -0.055325385 0.065972984 0.05314893
0.055074863 -0.047995787 0.013149601 -0.055136997 -0.050534077 -0.049481675 0.025799088 -0.024834557
-0.049349852 -0.016632373 0.054606806 -0.010381762 -0.040814195 0.054585524 -0.07146546 -0.026230266
-0.026795242 -0.043000832 0.058565143 -0.07535253 -0.04791598 0.023729118 0.028738031 -0.027844982
-0.016172744 -0.038680114 0.02850799 0.03241661 -0.07786164 -0.07845257 -0.059685428 0.074721314
0.0754948 0.031770945 -0.042151608 -0.07142624 -0.06912044 -0.047317993 0.04194732 0.039286118
-0.068737514 -0.06453888 -0.06884209 0.03397512 -0.0063723125 0.010142763 0.006898009 0.058645427
-0.06839673 0.014159558 0.060002558 0.011405769 -0.0074147508 0.06557644 -0.029375145 -0.032069836
-0.058958966 -0.05907459 0.040040996 -0.013191271 -0.013255877 -0.04443154 -0.054060515 -0.034838017
0.06935377 -0.067331485 0.019894628 0.023009103 -0.025679717 -0.010546218 -0.052722283 -0.0056423293
0.044273946 -0.022701547 -0.03022963 -0.000756452 -0.05442718 0.058914155 -0.06449007 -0.033455186
0.021965476 -0.038143326 -0.02696327 0.036592934 0.06807686 -0.010682053 0.071117304 0.02628725
-0.0043007373 -0.07491993 0.024393313 0.06894288 -0.08199724 0.08219064 0.06324538 -0.060984988
-0.039425094 0.043187086 0.00034105388 -0.059514455 -0.049399722 0.024615336 -0.029960254 -0.046209216
0.047401097 -0.025630036 0.08046901 0.0391621 0.060957897 0.038752086 -0.051164765 0.018834015
-0.022536349 -0.06999214 -0.078964055 0.058586933 0.0644427 0.004786908 0.057981715 0.06704808
0.07949201 -0.015562357 0.0007078378 0.07383436 -0.018268203 0.064607665 -0.03409928 -0.027323062
0.078457825 -0.058843378 -0.033699624 -0.041987825 -0.027609255 -0.06680174 -0.06846086 0.017671794
-0.066299625 -0.023922492 0.031886697 0.04369536 -0.035748422 0.046145007 0.010374156 -0.04897469
0.07404763 -0.0464753 0.009265004 -0.0059316084 0.04402918 0.0465388 0.0014278261 -0.06976478
-0.06227902 0.022222161 0.07899321 0.07244872 -0.029224947 0.028176168 -0.027888227 -0.0072040902
-0.017603923 0.07733181 0.01906279 0.0013426356 -0.024496151 0.014382569 0.07349013 0.010948513
0.017126469 0.022551293 -0.018591046 0.0011802494 0.009354976 0.047637317 0.0397427 0.024334902
0.02751133 0.009694761 -0.0113819605 -0.018897224 0.015672807 -0.010057563 -0.04698525 0.0028128817
0.038042307 -0.077270105 0.045528278 0.017436204 0.06939171 0.06338638 -0.07744773 0.07911596
0.021654598 -0.0027822633 0.071118355 0.022448549 0.054015793 0.068716824 -0.011725287 0.01571516
0.062183227 0.07791139 0.08202058 -0.060268685 -0.032827035 0.02471371 -0.010045886 -0.059303246
-0.038417526 0.002091637 0.020662488 -0.059270296 -0.06969271 0.05032479 0.010980577 0.054149296
-0.05765195 -0.04103425 -0.011843876 0.07981688 -0.07016361 -0.021401675 -0.07379892 0.028874006
0.028836463 -0.059367456 0.005893431 0.06529658 0.019140879 0.047377847 -0.02797018 -0.0351418
-0.0046865097 -0.0681286 -0.03147935 -0.038645685 -0.06996117 0.0682469 0.043969125 -0.029979948
0.055869266 -0.010885361 0.0016649852 0.070624806 -0.060394533 -0.021796828 0.038696308 0.0003293414
00000000: ebbe 33bd d5ec cb3c cf14 5b3d b4dd 67bc
00000010: c694 d73c df9c 62bd d81c 873d b1b2 593d
00000020: 2e96 613d 3b97 44bd 6d71 573c 55d7 61bd
00000030: d2fc 4ebd 4cad 4abd 9c58 d33c d771 cbbc
00000040: 1223 4abd 9d40 88bc 63ab 5f3d 4418 2abc
00000050: c92c 27bd 1295 5f3d 7c5c 92bd dbe0 d6bc
00000060: b281 dbbc a421 30bd 01e2 6f3d 6d52 9abd
00000070: 8c43 44bd 9163 c23c 056c eb3c 291b e4bc
00000080: b47c 84bc 0a6f 1ebd 9789 e93c 47c7 043d
00000090: ec75 9fbd beab a0bd b578 74bd 7d07 993d
000000a0: 059d 9a3d 4022 023d 2aa7 2cbd ec47 92bd
000000b0: 048f 8dbd 83d0 41bd f4d0 2b3d 7bea 203d
000000c0: 41c6 8cbd f62c 84bd 15fd 8cbd 7f29 0b3d
000000d0: d5ce d0bb d52d 263c b208 e23b 3036 703d
000000e0: 9613 8cbd 7efd 673c 3ec5 753d 43df 3a3c
000000f0: 70f7 f2bb f14c 863d 25a4 f0bc a95b 03bd
00000100: f57e 71bd 33f8 71bd 0702 243d 3320 58bc
00000110: 2e2f 59bc d9fd 35bd 8f6e 5dbd 4fb2 0ebd
00000120: 5909 8e3d 17e5 89bd 0ffa a23c 967d bc3c
00000130: 455e d2bc 0bca 2cbc 52f3 57bd 4ae3 b8bb
00000140: 9958 353d 98f8 b9bc 21a4 f7bc a24c 46ba
00000150: 09ef 5ebd f84f 713d 5f13 84bd 4e08 09bd
00000160: f1f0 b33c 2d3c 1cbd 13e2 dcbc 79e2 153d
00000170: e16b 8b3d c703 2fbc f3a5 913d 5c58 d73c
00000180: 33ed 8cbb 9f6f 99bd 7cd4 c73c ed31 8d3d
00000190: 2bee a7bd 9153 a83d cb86 813d 65cb 79bd
000001a0: 357c 21bd f1e4 303d 7acf b239 6ec5 73bd
000001b0: 5d57 4abd 1aa6 c93c 356f f5bc e045 3dbd
000001c0: a727 423d 15f6 d1bc f0cc a43d 7068 203d
000001d0: fdae 793d 82ba 1e3d 2592 51bd cb49 9a3c
000001e0: 269e b8bc 0a58 8fbd e8b7 a1bd daf8 6f3d
000001f0: 89fa 833d 7fdb 9c3b 3c7e 6d3d 8150 893d
00000200: b5cc a23d 42f9 7ebc 318e 393a 7836 973d
00000210: 33a7 95bc 0651 843d b0ab 0bbd 9dd4 dfbc
00000220: 7fae a03d c105 71bd 9e08 0abd 6dfb 2bbd
00000230: ce2c e2bc 5acf 88bd 3535 8cbd 70c4 903c
00000240: 19c8 87bd 1af9 c3bc a09b 023d e8f9 323d
00000250: f06c 12bd 8c02 3d3d 5df8 293c af99 48bd
00000260: 49a6 973d e25c 3ebd 3ecc 173c f05d c2bb
00000270: f157 343d 789f 3e3d e525 bb3a d6e0 8ebd
00000280: 4918 7fbd 400b b63c 31c7 a13d ff5f 943d
00000290: 2869 efbc b5d1 e63c da75 e4bc 4a10 ecbb
000002a0: 1a36 90bc 2460 9e3d 9129 9c3c 60fb af3a
000002b0: 27ac c8bc dea4 6b3c fe81 963d 6461 333c
000002c0: cf4c 8c3c 7dbd b83c 404c 98bc 99b2 9a3a
000002d0: 9d45 193c 591f 433d 3ec9 223d fd59 c73c
000002e0: 715f e13c c6d6 1e3c 677b 3abc 5ace 9abc
000002f0: 4264 803c 7ac8 24bc 9b73 40bd 5358 383b
00000300: 40d2 1b3d ca3f 9ebd dc7b 3a3d 5fd6 8e3c
00000310: 3e1d 8e3d b8d0 813d ea9c 9ebd 8c07 a23d
00000320: fc64 b13c a256 36bb 80a6 913d 05e6 b73c
00000330: aa3f 5d3d 68bb 8c3d 6b1b 40bc 14bd 803c
00000340: d7b3 7e3d 0290 9f3d 68fa a73d 4cdc 76bd
00000350: a475 06bd 6874 ca3c 8097 24bc f6e7 72bd
00000360: b25b 1dbd d913 093b 6144 a93c 69c5 72bd
00000370: 0dbb 8ebd 5e21 4e3d e1e7 333c a7cb 5d3d
00000380: 7324 6cbd 8813 28bd d10c 42bc 0877 a33d
00000390: f0b1 8fbd 9152 afbc e323 97bd 2e89 ec3c
000003a0: 723a ec3c 4a2b 73bd af1d c13b 37ba 853d
000003b0: 55cd 9c3c 460f 423d b821 e5bc d9f0 0fbd
000003c0: 4b91 99bb 0287 8bbd 7ef0 00bd f04a 1ebd
000003d0: cd47 8fbd 08c5 8b3d f818 343d 8298 f5bc
000003e0: 2cd7 643d 8358 32bc a23b da3a bda3 903d
000003f0: 4260 77bd 438f b2bc 0580 1e3d 74ab ac39

conv2.0.bias f4 [16]
-0.04233032 0.017899413 0.01002098 -0.08247707 0.010064716 0.013919853 -0.07757288 -0.016330102
0.02803808 -0.043995067 -0.07257865 -0.06935563 -0.048979178 -0.030214194 0.03923655 -0.08132875
00000000: 8f62 2dbd caa1 923c 092f 243c bde9 a8bd
00000010: 7be6 243c 1810 643c 88de 9ebd b5c6 85bc
00000020: 1eb0 e53c 2c34 34bd 1ea4 94bd 530a 8ebd
00000030: 649e 48bd c283 f7bc 81b6 203d b08f a6bd

conv2.1.weight f4 [16]
0.99935913 0.99935913 0.99935913 0.99935913 0.99935913 0.99935913 0.99935913 0.99935913
0.99935913 0.99935913 0.99935913 0.99935913 0.99935913 0.99935913 0.99935913 0.99935913
00000000: 00d6 7f3f 00d6 7f3f 00d6 7f3f 00d6 7f3f
00000010: 00d6 7f3f 00d6 7f3f 00d6 7f3f 00d6 7f3f
00000020: 00d6 7f3f 00d6 7f3f 00d6 7f3f 00d6 7f3f
00000030: 00d6 7f3f 00d6 7f3f 00d6 7f3f 00d6 7f3f

conv2.1.bias f4 [16]
0.000601143 0.0004288316 0.00022532437 -0.00040248892 -0.0004868353 0.00056770194 -0.0005670815 -0.0006072208
0.0006040764 -0.000561261 -0.00047837116 0.0005899637 -0.00018428285 0.00057972874 0.00029344598 0.00039544632
00000000: 0696 1d3a ced4 e039 0d45 6c39 2605 d3b9
00000010: ee3d ffb9 d5d1 143a 32a8 14ba e62d 1fba
00000020: e25a 1e3a 9721 13ba e4cd fab9 cba7 1a3a
00000030: 0d3c 41b9 f0f8 173a a7d9 9939 e853 cf39

conv2.1.running_mean f4 [16]
-0.37098616 0.3835774 0.36412787 -0.14683475 -0.22974682 -0.023857644 0.051006135 -0.018598806
-0.29153043 -0.18408842 0.14947522 -0.02318858 0.29202414 0.019397743 -0.07069208 -0.24346587
00000000: e6f1 bdbe 4264 c43e f86e ba3e d95b 16be
00000010: c042 6bbe 1b71 c3bc cfeb 503d 865c 98bc
00000020: 7a43 95be ad81 3cbe 0810 193e faf5 bdbc
00000030: 3084 953e 04e8 9e3c 02c7 90bd 1e4f 79be

conv2.1.running_var f4 [16]
0.17062138 0.033030428 0.07884256 0.13742363 0.043501843 0.04108487 0.012703556 0.05127041
0.05747199 0.14794965 0.052126512 0.055878278 0.034609247 0.12991679 0.15110235 0.035481557
00000000: 5fb7 2e3e ea4a 073d 3578 a13d c8b8 0c3e
00000010: fd2e 323d 9c48 283d 9322 503c ec00 523d
00000020: c067 6b3d 1d80 173e 9c82 553d 9fe0 643d
00000030: 6dc2 0d3d e808 053e 93ba 1a3e 1c55 113d

conv3.0.weight f4 [16, 16, 3, 3]
-0.002082149 0.04888298 -0.03509744 -0.054050755 -0.066761486 -0.082087345 0.07357684 0.04959039
0.0114703225 -0.039170664 0.06560657 -0.033318598 -0.049762163 0.009968189 0.058166176 -0.08086945
0.02769663 -0.07408544 -0.00035821123 -0.041600008 -0.08156741 -0.05250053 0.08071967 0.004352851
-0.051715318 0.017213032 -0.081291884 0.08117798 -0.020947656 0.06674442 -0.065634385 -0.035923067
0.012267447 -0.03607561 -0.039170574 -0.016022747 0.0009999276 0.02740858 -0.04148661 -0.050696667
-0.03482052 0.028401222 0.01625664 0.07544748 -0.0062012672 0.0725573 0.044133693 0.0412401
0.05460945 -0.060697973 -0.053577192 -0.00960956 0.018880364 0.010078877 0.047442444 -0.071425065
-0.072802104 0.07026647 -0.034159318 -0.037117057 -0.048582103 -0.0020292096 0.07982312 0.028985338
0.013539656 -0.024338473 -0.012360678 -0.061647348 -0.035193868 0.063627675 0.016873995 0.024310783
-0.0037933385 -0.0035835493 0.07393119 0.07038055 -0.043286096 -0.018040327 0.006260363 -0.047180682
-0.03832562 0.06677941 -0.057375252 0.048316196 0.06788724 -0.009471947 -0.059904207 -0.01864538
-0.052800793 0.04864091 -0.055940393 -0.038728423 0.057977382 -0.07939953 -0.014511544 -0.07596277
0.08042297 0.04366638 -0.015985666 0.01643691 0.021457376 0.068266444 -0.052605048 0.024056744
-0.014725037 0.007755396 -0.020975979 0.04489357 0.060207188 -0.033199955 0.053449307 0.018494848
-0.017626103 -0.03771181 -0.02724684 -0.053434584 0.08209372 -0.042905368 0.05901814 0.076413915
-0.012344055 -0.0027235618 -0.024354309 -0.05608768 0.06250739 -0.07899963 0.078281246 -0.042700578
0.01761301 0.04788177 0.06098653 -0.0760969 -0.05430896 0.031442087 -0.0065638945 -0.06876036
-0.07064014 0.0036372147 0.081878744 0.060210783 0.06223535 0.07709248 -0.059298318 0.054407023
0.023054069 0.03959804 0.01828502 0.021001603 -0.019210016 -0.02826135 -0.020588832 0.06270393
0.017792245 0.009841655 -0.062617235 0.067255765 0.045786314 -0.032218575 0.07395333 -0.0028213616
0.043443397 0.060697474 -0.07041846 0.08076705 0.07728718 0.001358542 -0.072955884 -0.016856175
-0.027854564 -0.08111624 -0.055374876 0.012140334 0.039255057 -0.048154905 -0.063513145 0.053027615
0.07448218 -0.05201753 -0.06932081 0.0069597824 0.037859607 -0.051427856 0.01674637 -0.08063019
-0.07433991 0.056487933 0.07207265 0.049896996 0.026903518 -0.030437106 0.020953799 -0.014758407
0.031059844 -0.06199523 -0.0015325181 0.016101275 0.07916719 0.056210626 0.055827376 0.03190847
-0.0047263275 -0.028243266 -0.058055256 0.013460727 -0.044950224 -0.035378385 -0.03530927 0.020012384
-0.052247647 0.038840014 -0.021513935 -0.032828417 -0.047319327 -0.034104493 0.075157024 0.059472177
0.06210325 -0.031191753 -0.0333518 -0.058825675 -0.030432997 -0.017854694 -0.078114465 0.074309334
0.076050706 0.0028098891 0.064355224 -0.07753544 0.017362943 -0.077032395 -0.019594606 -0.03553533
-0.0708723 -0.031752452 0.034318183 0.03939199 0.018959718 0.026340082 -0.034384318 -0.075217925
0.07447564 0.043482006 0.0434103 0.020606747 0.021872796 0.0786482 0.019273132 0.067478456
-0.07738979 -0.004789698 0.021526512 -0.06810606 0.024866467 -0.0426703 0.0003983264 -0.05468809
00000000: aa74 08bb 8539 483d 55c2 0fbd 5364 5dbd
00000010: 3fba 88bd 691d a8bd 74af 963d 4b1f 4b3d
00000020: 05ee 3b3c 6b71 20bd bd5c 863d 1579 08bd
00000030: 69d3 4bbd 9d51 233c a83f 6e3d e29e a5bd
00000040: 0be4 e23c 1bba 97bd 4cce bbb9 c564 2abd
00000050: d00c a7bd cc0a 57bd 5b50 a53d 5ca2 8e3b
00000060: 71d3 53bd 5802 8d3c 5c7c a6bd a440 a63d
00000070: 6b9a abbc 4cb1 883d 526b 86bd 1124 13bd
00000080: 67fd 483c 05c4 13bd 5371 20bd 2342 83bc
00000090: 0110 833a f587 e03c dded 29bd 4fa7 4fbd
000000a0: f69f 0ebd aea9 e83c a52c 853c 3584 9a3d
000000b0: 0034 cbbb ec98 943d 88c5 343d 61eb 283d
000000c0: 29ae 5f3d 709e 78bd c273 5bbd 6a71 1dbc
000000d0: feaa 9a3c e021 253c 0253 423d 4e47 92bd
000000e0: 4519 95bd dee7 8f3d a4ea 0bbd 0e08 18bd
000000f0: 07fe 46bd 7dfc 04bb 4e7a a33d a972 ed3c
00000100: 6fd5 5d3c 7a61 c7bc 7184 4abc ee81 7cbd
00000110: 7227 10bd 3a4f 823d 553b 8a3c 6827 c73c
00000120: a999 78bb fbd9 6abb 3c69 973d ae23 903d
00000130: c34c 31bd 4fc9 93bc bb23 cd3b 8840 41bd
00000140: 53fb 1cbd a5c3 883d 5002 6bbd 34e7 453d
00000150: 7708 8b3d 3a30 1bbc 1d5e 75bd 32be 98bc
00000160: a545 58bd b13b 473d c121 65bd b2a1 1ebd
00000170: b179 6d3d 399c a2bd d4c1 6dbc 5e92 9bbd
00000180: ccb4 a43d 85db 323d 5ff4 82bc b3a6 863c
00000190: 61c7 af3c 47cf 8b3d 6478 57bd a612 c53c
000001a0: 4841 71bc fa20 fe3b d1d5 abbc 52e2 373d
000001b0: d09b 763d adfc 07bd a9ed 5a3d 8282 973c
000001c0: 9e64 90bc b377 1abd c434 dfbc 39de 5abd
000001d0: c120 a83d 8abd 2fbd 01bd 713d e67e 9c3d
000001e0: b83e 4abc c97d 32bb b082 c7bc 32bc 65bd
000001f0: e003 803d 8fca a1bd eb51 a03d cde6 2ebd
00000200: 2949 903c ad1f 443d 03cd 793d b1d8 9bbd
00000210: 1273 5ebd 6bc9 003d f015 d7bb 3bd2 8cbd
00000220: c7ab 90bd 565e 6e3b 0bb0 a73d 959f 763d
00000230: 7fea 7e3d aae2 9d3d cbe2 72bd e6d9 5e3d
00000240: e3db bc3c 8e31 223d 77ca 953c 8e0b ac3c
00000250: 535e 9dbc 5984 e7bc e9a9 a8bc eb6a 803d
00000260: 0bc1 913c e53e 213c 773d 80bd 64bd 893d
00000270: 6e8a 3b3d a0f7 03bd d874 973d 98e6 38bb
00000280: b4f1 313d ea9d 783d 8e37 90bd 3269 a53d
00000290: be48 9e3d 1b11 b23a e569 95bd f615 8abc
000002a0: 412f e4bc 4520 a6bd c4d0 62bd 40e8 463c
000002b0: e9c9 203d 143e 45bd 2e13 82bd 7c33 593d
000002c0: 1d8a 983d 5510 55bd 12f8 8dbd e30e e43b
000002d0: ad12 1b3d 04a6 52bd af2f 893c 7121 a5bd
000002e0: 863f 98bd e45f 673d d39a 933d cb60 4c3d
000002f0: c464 dc3c 3d57 f9bc 4da7 ab3c 3fcd 71bc
00000300: 3771 fe3c b6ee 7dbd c6de c8ba d2e6 833c
00000310: 6822 a23d 1d3d 663d 3fab 643d 75b2 023d
00000320: 4fdf 9abb 6c5e e7bc 59cb 6dbd 628a 5c3c
00000330: ba1d 38bd ede8 10bd 74a0 10bd 03f1 a33c
00000340: a101 56bd b516 1f3d fe3d b0bc 1777 06bd
00000350: e9d1 41bd 27b1 0bbd edeb 993d 1999 733d
00000360: fa5f 7e3d d985 ffbc e69b 08bd 31f3 70bd
00000370: 9f4e f9bc 0244 92bc 7afa 9fbd 7e2f 983d
00000380: 79c0 9b3d 1e26 383b accc 833d e7ca 9ebd
00000390: bb3c 8e3c 29c3 9dbd de84 a0bc 7f8d 11bd
000003a0: 7f25 91bd dc0e 02bd 3991 0c3d 7f59 213d
000003b0: 6951 9b3c 28c7 d73c 92d6 0cbd db0b 9abd
000003c0: af86 983d 301a 323d 00cf 313d 7bcf a83c
000003d0: 942e b33c 4f12 a13d b0e2 9d3c 2532 8a3d
000003e0: 8a7e 9ebd e6f2 9cbb 5e58 b03c 317b 8bbd
000003f0: c3b4 cb3c 0dc7 2ebd 77d6 d039 9e00 60bd

conv3.0.bias f4 [16]
-0.017102271 -0.0005488967 0.00012668835 0.05697702 0.06740778 -0.054497022 -0.07144979 0.022054294
-0.07952231 0.049277402 0.021579916 0.07566255 -0.06761733 0.037407186 -0.021969745 0.05003578
00000000: 101a 8cbc d6e3 0fba a5d7 0439 bc60 693d
00000010: 170d 8a3d 4538 5fbd 4454 92bd 35ab b43c
00000020: 98dc a2bd 1ad7 493d 5dc8 b03c f8f4 9a3d
00000030: f47a 8abd 4738 193d e5f9 b3bc 51f2 4c3d

conv3.1.weight f4 [16]
0.99935913 0.99935913 0.99935913 0.99935913 0.99935913 0.99935913 0.99935913 0.99935913
0.99935913 0.99935913 0.99935913 0.99935913 0.99935913 0.99935913 0.99935913 0.99935913
00000000: 00d6 7f3f 00d6 7f3f 00d6 7f3f 00d6 7f3f
00000010: 00d6 7f3f 00d6 7f3f 00d6 7f3f 00d6 7f3f
00000020: 00d6 7f3f 00d6 7f3f 00d6 7f3f 00d6 7f3f
00000030: 00d6 7f3f 00d6 7f3f 00d6 7f3f 00d6 7f3f

conv3.1.bias f4 [16]
-0.0006288574 -0.00036170188 -0.0005796685 0.00029723096 -0.0006227444 0.00060304184 0.0006169744 0.0006198715
0.0006089229 -0.0005756348 0.0006460908 0.00062421255 -0.00054302387 0.0006249286 -0.00060271414 -0.0005269239
00000000: e8d9 24ba cea2 bdb9 e5f4 17ba aad5 9b39
00000010: ab3f 23ba 7415 1e3a 73bc 213a df7e 223a
00000020: 20a0 1f3a 33e6 16ba 6b5e 293a 32a2 233a
00000030: b759 0eba 40d2 233a 76ff 1dba 4421 0aba

conv3.1.running_mean f4 [16]
-0.03706886 0.09485377 -0.077218115 0.053527858 0.052696828 -0.0973359 -0.09964867 -0.018676741
-0.21828607 0.16144292 -0.01801863 -0.056123834 -0.08415703 0.015783299 0.02628855 -0.021941982
00000000: 84d5 17bd b242 c23d 8824 9ebd 0740 5b3d
00000010: a1d8 573d 0b58 c7bd 9a14 ccbd f7ff 98bc
00000020: 6286 5fbe 4b51 253e ce9b 93bc 1be2 65bd
00000030: 855a acbd fa4b 813c 165b d73c acbf b3bc

conv3.1.running_var f4 [16]
0.030257234 0.1195826 0.08990949 0.07134935 0.07528528 0.08210643 0.04984365 0.04588684
0.05887024 0.1227766 0.06003512 0.0579994 0.04502472 0.039878532 0.12132594 0.054178454
00000000: 05de f73c b9e7 f43d 7722 b83d 9c1f 923d
00000010: 2b2f 9a3d 6a27 a83d db28 4c3d d7f3 3b3d
00000020: ec21 713d 4c72 fb3d 63e7 753d c790 6d3d
00000030: d76b 383d ac57 233d bc79 f83d 3aea 5d3d

lstm.weight_ih f4 [128, 16]
-0.15705162 -0.0035788354 0.14938207 -0.02042015 0.014120542 -0.009500084 0.076291926 -0.059201863
0.040724684 -0.04101118 0.033882756 -0.06829442 -0.15057273 -0.03721399 -0.15839325 -0.098045796
0.08565677 0.16148674 -0.037779544 -0.061364144 -0.021669842 -0.06961827 -0.120265566 -0.062220596
-0.17346351 0.044476435 0.005497981 0.03492752 0.029984474 -0.046138696 0.043444727 0.009217014
0.060820047 -0.16977745 0.13317703 -0.047682095 -0.080801785 -0.001724036 0.038952876 -0.08326479
-0.1653449 0.12854688 0.043561228 0.0031924536 -0.0726751 0.085279636 0.014188857 -0.023045564
-0.06755021 -0.07941208 -0.040937345 0.02353177 -0.15203652 -0.15329638 0.04576099 -0.11881912
-0.10536605 -0.011242244 -0.037525445 -0.06121383 0.1348332 -0.100908495 0.0153479 -0.115918055
-0.124087214 0.15032122 -0.06384417 -0.048627887 -0.13901469 0.013777914 -0.04229673 -0.16574329
-0.16425769 0.14763749 0.15558065 0.09931835 0.10887158 0.1722033 -0.1574636 -0.15056254
0.05057459 0.011947826 0.07865065 0.0025923534 0.14011241 -0.04812897 0.028424704 -0.03141878
-0.037627447 -0.11325797 0.14549215 -0.12197032 -0.020307615 0.03952014 0.15876858 -0.17607795
-0.08430791 -0.027471747 -0.103509404 -0.16787988 0.12988782 -0.018036084 0.02480226 0.11822707
-0.058884278 0.032785337 -0.17238829 0.045923743 0.15977582 -0.014587074 0.009545087 -0.09941321
-0.11513172 -0.076063134 -0.04860628 0.05365779 0.13946001 0.021979697 0.16849013 -0.0972744
-0.04344737 0.14381813 0.07564019 0.08539062 0.11992392 -0.14796402 -0.0947433 -0.09389834
-0.07112427 0.05166448 -0.036259748 0.08249646 -0.17492512 -0.1383232 0.097881414 0.10132053
0.09606036 0.14577295 0.10264384 0.029398622 -0.029323377 0.15592523 0.09219854 0.017353112
-0.040578187 0.087157704 0.013669785 -0.03783621 0.05849377 -0.16365333 0.14547047 0.051090103
-0.05581298 -0.012162338 0.021854805 0.112036444 0.021617066 0.13167343 0.09895768 -0.01868015
0.14322332 0.057656594 0.05428836 0.0542911 -0.06604148 -0.06522309 0.15956262 -0.06358662
0.02648247 0.00048259116 -0.075503476 -0.12174747 -0.04099131 0.04356105 0.0068905978 -0.09978011
0.113644004 0.13296096 0.0825488 0.10047831 0.064002395 0.15845025 0.057422526 1.4472333e-05
-0.06734176 -0.06930223 0.009748682 -0.15047099 0.126788 0.010725336 0.07320744 0.07294607
0.025188925 -0.16127515 -0.030994805 0.05061593 0.019675942 -0.0017991795 0.09926642 0.14039558
-0.05107163 -0.09588124 0.12620582 0.054942682 -0.1702039 -0.04810251 -0.05473607 0.07635592
0.07397182 0.13323179 -0.019523958 -0.11552058 -0.0567663 0.15021975 -0.0694 0.13412862
0.07700304 -0.11894265 0.16535534 0.015396041 0.06730032 -0.043851826 0.04677217 -0.08326313
0.011060954 -0.12012778 -0.07518711 0.033931363 -0.008043721 0.16699217 -0.026178302 0.17305648
0.0006695404 -0.062829025 0.09624598 -0.03145687 -0.0883935 -0.034716256 0.08082004 0.025013817
0.100557975 -0.00824727 0.0010286437 0.094863124 -0.111571684 0.12094638 0.124365605 0.00063836947
-0.031038648 -0.06929079 -0.07907107 0.09970871 -0.124155745 -0.14984074 0.13263798 0.13505769
00000000: 24d2 20be e58a 6abb 9df7 183e 2948 a7bc
00000010: d959 673c 3ea6 1bbc f13e 9c3d a77d 72bd
00000020: edce 263d 57fb 27bd a5c8 0a3d f2dd 8bbd
00000030: bd2f 1abe b26d 18bd d731 22be 3ccc c8bd
00000040: d16c af3d c85c 253e b9be 1abd f858 7bbd
00000050: f484 b1bc 0694 8ebd cb4d f6bd 06db 7ebd
00000060: 6ba0 31be ec2c 363d 6828 b43b 2910 0f3d
00000070: 00a2 f53c eefb 3cbd 19f3 313d f502 173c
00000080: 711e 793d 24da 2dbe 8f5f 083e 4d4e 43bd
00000090: 687b a5bd 0cf9 e1ba 0d8d 1f3d bb86 aabd
000000a0: 2c50 29be cba1 033e 426d 323d 7c38 513b
000000b0: afd6 94bd 17a7 ae3d 6178 683c 0dca bcbc
000000c0: c457 8abd cda2 a2bd ebad 27bd b3c5 c03c
000000d0: 76af 1bbe baf9 1cbe e06f 3b3d 7057 f3bd
000000e0: 28ca d7bd 6431 38bc 48b4 19bd 5abb 7abd
000000f0: b711 0a3e 1da9 cebd c275 7b3c 7266 edbd
00000100: 7021 febd ceed 193e bbc0 82bd 092e 47bd
00000110: de59 0ebe c3bc 613c 563f 2dbd 9cb8 29be
00000120: 2b33 28be 482e 173e 8950 1f3e 6b67 cb3d
00000130: 10f8 de3d 1056 303e 233e 21be 112d 1abe
00000140: 4d27 4f3d d0c0 433c 9813 a13d 79e4 293b
00000150: a179 0f3e e222 45bd edda e83c fbb0 00bd
00000160: 3d1f 1abd cbf3 e7bd e5fb 143e 93cb f9bd
00000170: 285c a6bc dfdf 213d 3b94 223e c74d 34be
00000180: a0a9 acbd 6e0c e1bc bdfc d3bd b4e8 2bbe
00000190: 5001 053e 69c0 93bc 1c2e cb3c 0921 f23d
000001a0: a430 71bd eb49 063d 8e86 30be 891a 3c3d
000001b0: 469c 233e 9ffe 6ebc ff62 1c3c 2799 cbbd
000001c0: 2eca ebbd fdc6 9bbd 6117 47bd 45c8 5b3d
000001d0: 9bce 0e3e c40e b43c ad88 2c3e cd37 c7bd
000001e0: dff5 31bd 0f45 133e 3ee9 9a3d 47e1 ae3d
000001f0: ac9a f53d e183 17be c608 c2bd c64d c0bd
00000200: 9aa9 91bd 229e 533d 1a85 14bd e7f3 a83d
00000210: 921f 33be 99a4 0dbe 0d76 c83d 2381 cf3d
00000220: 4bbb c43d 8145 153e ef36 d23d 61d5 f03c
00000230: 9437 f0bc ddaa 1f3e 97d2 bc3d 1d28 8e3c
00000240: 5035 26bd bd7f b23d 3cf7 5f3c 24fa 1abd
00000250: 2a97 6f3d bd94 27be 36f6 143e db43 513d
00000260: 279c 64bd 8b44 47bc d908 b33c 5d73 e53d
00000270: 4616 b13c 66d5 063e 53aa ca3d 1d07 99bc
00000280: 22a9 123e 5229 6c3d 795d 5e3d 5860 5e3d
00000290: c140 87bd af93 85bd 6264 233e b439 82bd
000002a0: c4f1 d83c 4a04 fd39 91a1 9abd bd56 f9bd
000002b0: 81e6 27bd 126d 323d 86ca e13b 8459 ccbd
000002c0: 30be e83d eb26 083e 580f a93d 92c7 cd3d
000002d0: b013 833d c840 223e e233 6b3d 32ce 7237
000002e0: 7aea 89bd 54ee 8dbd f0b8 1f3c 1115 1abe
000002f0: b7d4 013e 52b9 2f3c c8ed 953d c064 953d
00000300: 0159 ce3c 5025 25be d1e8 fdbc a652 4f3d
00000310: 712f a13c 72d2 ebba 314c cb3d dcc3 0f3e
00000320: 7c30 51bd 625d c4bd 193c 013e 940b 613d
00000330: ee49 2ebe 2307 45bd ee32 60bd 7e60 9c3d
00000340: 8a7e 973d ea6d 083e b5f0 9fbc 0e96 ecbd
00000350: c883 68bd 35d3 193e 9621 8ebd 0359 093e
00000360: c5b3 9d3d 3498 f3bd e952 293e ad3f 7c3c
00000370: c0d4 893d f99d 33bd 2d94 3f3d dc85 aabd
00000380: 0139 353c 8e05 f6bd b3fb 99bd 9dfb 0a3d
00000390: d0c9 03bc ffff 2a3e e173 d6bc b835 313e
000003a0: 1884 2f3a 81ac 80bd 9d1c c53d ebd8 00bd
000003b0: a707 b5bd a232 0ebd fa84 a53d c7e9 cc3c
000003c0: 57f1 cd3d 8f1f 07bc 8ed3 863a 9947 c23d
000003d0: b27f e4bd bcb2 f73d 65b3 fe3d 4058 273a
000003e0: c344 febc 54e8 8dbd 03f0 a1bd 1534 cc3d
000003f0: 5e45 febd da6f 19be 40d2 073e 904c 0a3e

lstm.weight_hh f4 [128, 32]
0.021937523 0.035195302 0.083468184 2.6927424e-07 -0.050690215 -0.009020965 0.0596822 -0.003438347
-0.13904522 0.059467405 0.15519735 -0.13435276 -0.026595399 -0.12166678 0.0515377 -0.1107831
0.022696119 0.062745765 0.08744111 0.0950287 -0.040538285 -0.106435865 0.14792119 0.13581055
0.0008012841 -0.0287807 0.07058988 -0.045256823 0.023646 0.127979 -0.080101915 -0.13995758
0.02872706 0.04191438 -0.17097329 0.019581905 0.022505404 -0.09679402 0.016294986 -0.07090628
0.038147375 -0.1505835 0.11952566 -0.1035286 0.117650054 0.080110684 0.14267433 0.050078563
1.9103925e-06 -0.021755565 0.116095215 0.069061525 -0.15223025 -0.06623436 -0.09560908 -0.17155042
-0.035954986 -0.11598058 0.14572915 -0.018319778 0.15699287 0.16445431 -0.15031625 -0.15829119
0.155404 -0.1730454 0.0499301 -0.10537367 0.12174342 0.16690916 0.11272786 0.1608712
-0.079591155 -0.12923773 0.1085434 0.11010834 -0.117350355 0.05415286 0.1145803 0.14251572
-0.036863532 -0.035252117 -0.15500198 0.06764159 0.15161689 -0.08281699 0.06816437 0.16701657
-0.13038215 0.13703774 -0.14342992 -0.16998495 0.1318621 -0.08933474 -0.008867673 0.17574334
0.16482478 0.0792261 0.17097513 0.09278057 -0.019788936 -0.16063792 -0.11625749 -0.14457867
-0.14197266 -0.116124496 -0.0010868483 0.14797743 -0.15077038 0.007044125 0.053251956 -0.08121191
0.09276352 0.14173722 -0.05072443 0.030973395 -0.14626876 -0.047556307 -0.16238953 -0.048524603
0.08013739 0.012074733 0.0907616 -0.046075866 0.054732595 0.05737415 0.11372197 -0.1241588
0.12029497 0.04245894 0.01850112 -0.15295613 0.011089521 0.09660979 -0.13291784 -0.009138517
0.004738873 0.072229914 -0.039724816 -0.08521084 -0.16274647 -0.079101145 -0.04844706 0.13670482
-0.021332076 -0.047641676 0.03469428 0.032017574 -0.11263968 -0.047445145 -0.07376023 0.060193203
-0.0940606 -0.038350966 -0.1404967 -0.02229726 -0.0114937825 0.07980482 -0.063744254 0.078944914
0.11102181 -0.1412101 -0.15237905 -0.08686708 -0.06779124 -0.095805064 -0.14093603 0.105970435
0.10386244 0.04749709 0.17613527 -0.089837976 0.029757872 0.08960057 0.020759592 -0.094695136
-0.10034737 -0.12803262 -0.05216107 -0.17013104 -0.0583986 -0.012114595 0.14958332 0.10270516
-0.13727246 0.027897201 0.029290048 0.119254075 0.0056922883 -0.16045949 0.051351443 0.17233859
0.091966316 0.106032394 0.06185338 0.0769439 0.15050156 0.16268724 -0.11321934 0.05930628
-0.003119228 -0.1302818 -0.11918528 0.06433438 -0.118997805 -0.09059223 0.05436745 -0.047601532
0.10520491 0.11311317 0.065965116 -0.15197413 -0.05752988 0.118293665 0.047312662 -0.027915036
0.10768665 0.009460266 -0.0106748175 -0.09193678 0.019304287 -0.1568579 -0.019306239 0.11790519
0.15718137 0.09596258 -0.10877235 -0.1469846 -0.10658127 -0.037763238 0.17133258 0.09487909
-0.12744975 0.044918273 -0.027236579 0.030383762 0.008857352 -0.16303846 -0.06845838 -0.13329916
0.09422145 0.14896055 -0.11942764 -0.1404208 0.1261843 -0.16705215 0.09308497 0.008807528
-0.10521965 0.0360637 -0.11587867 0.0076012085 0.030698068 0.10731859 0.13677405 0.043978505
00000000: 52b6 b33c f328 103d 5ef1 aa3d c590 9034
00000010: 8ba0 4fbd abcc 13bc 5375 743d e455 61bb
00000020: df61 0ebe 1894 733d 0eec 1e3e c593 09be
00000030: 98de d9bc 6f2c f9bd 3219 533d 40e2 e2bd
00000040: 36ed b93c da80 803d 5314 b33d 689e c23d
00000050: 790b 26bd 0cfb d9bd a778 173e ec11 0b3e
00000060: 440d 523a 81c5 ebbc 6d91 903d 385f 39bd
00000070: 42b5 c13c ed0c 033e 790c a4bd 0a51 0fbe
00000080: 0355 eb3c 6aae 2b3d 9f13 2fbe 3b6a a03c
00000090: 415d b83c f13b c6bd 107d 853c 5037 91bd
000000a0: 6c40 1c3d 9032 1abe dfc9 f43d cd06 d4bd
000000b0: 83f2 f03d 1211 a43d 3819 123e 2e1f 4d3d
000000c0: 4b34 0036 ba38 b2bc 54c3 ed3d 2170 8d3d
000000d0: 3fe2 1bbe e1a5 87bd b1ce c3bd eaaa 2fbe
000000e0: 8945 13bd 3a87 edbd 063a 153e 5c13 96bc
000000f0: bdc2 203e b666 283e 81ec 19be 1617 22be
00000100: 3a22 1f3e d032 31be 8183 4c3d 27ce d7bd
00000110: 9d54 f93d 3cea 2a3e dddd e63d 6bbb 243e
00000120: b000 a3bd e556 04be 014c de3d 7b80 e13d
00000130: 6255 f0bd 64cf 5d3d 14a9 ea3d a4ef 113e
00000140: 37fe 16bd 8664 10bd d7b8 1ebe ad87 8a3d
00000150: 7541 1b3e f49b a9bd c399 8b3d 6406 2b3e
00000160: e682 05be 9f53 0c3e 4bdf 12be 8910 2ebe
00000170: dc06 073e 22f5 b6bd b749 11bc 10f6 333e
00000180: d4c7 283e 4b41 a23d 1b14 2f3e bd03 be3d
00000190: 681c a2bc 447e 24be 6818 eebd 6e0c 14be
000001a0: 4861 11be aed2 edbd 9474 8eba 6587 173e
000001b0: 8d63 1abe 67d2 e63b b91e 5a3d 6e52 a6bd
000001c0: cdfa bd3d 9023 113e 6bc4 4fbd ebbb fd3c
000001d0: 7ac7 15be 67ca 42bd 7149 26be bcc1 46bd
000001e0: 121f a43d 1ad5 453c 38e1 b93d 0cba 3cbd
000001f0: 492f 603d 2801 6b3d 10e7 e83d f846 febd
00000200: 365d f63d 6de9 2d3d a98f 973c 88a0 1cbe
00000210: d3b0 353c 5bdb c53d 9d1b 08be b8b9 15bc
00000220: 8c48 9b3b 47ed 933d 7db6 22bd 0583 aebd
00000230: 03a7 26be c8ff a1bd 6d70 46bd 59fc 0b3e
00000240: 9bc0 aebc eb23 43bd 971b 0e3d dc24 033d
00000250: a2af e6bd d755 42bd 9a0f 97bd 268d 763d
00000260: d8a2 c0bd e715 1dbd 5ede 0fbe bea8 b6bc
00000270: 6b50 3cbc b670 a33d 598c 82bd dfad a13d
00000280: 675f e33d 6199 10be 4109 1cbe 5ee7 b1bd
00000290: 22d6 8abd 7235 c4bd 8951 10be 0707 d93d
000002a0: d5b5 d43d 4f8c 423d ce5c 343e f9fc b7bd
000002b0: c8c6 f33c 8180 b73d 0510 aa3c 86ef c1bd
000002c0: ec82 cdbd fc1a 03be d9a6 55bd d536 2ebe
000002d0: 5f33 6fbd 4b7c 46bc 5f2c 193e 1557 d23d
000002e0: 2791 0cbe ac88 e43c aff1 ef3c 7b3b f43d
000002f0: 6086 ba3b 7e4f 24be e455 523d 8779 303e
00000300: d658 bc3d 8327 d93d f859 7d3d c394 9d3d
00000310: 151d 1a3e 7c97 263e 8bdf e7bd 24eb 723d
00000320: f66b 4cbb 9868 05be 6917 f4bd bec1 833d
00000330: 1fb5 f3bd 6b88 b9bd 67b0 5e3d d3f9 42bd
00000340: ac75 d73d e1a7 e73d b818 873d 1b9f 1bbe
00000350: 74a4 6bbd f343 f23d ecca 413d 13ae e4bc
00000360: d18a dc3d 3bff 1a3c 6ee5 2ebc 5a49 bcbd
00000370: 0624 9e3c 5b9f 20be 1e28 9ebc 4778 f13d
00000380: 27f4 203e 0788 c43d 0ac4 debd 2283 16be
00000390: 4847 dabd a0ad 1abd cf71 2f3e f84f c23d
000003a0: 3082 02be 39fc 373d 3f1f dfbc 5ee7 f83c
000003b0: 6d1e 113c 8ef3 26be e833 8cbd 937f 08be
000003c0: 2df7 c03d 1d89 183e 7b96 f4bd 78ca 0fbe
000003d0: 7536 013e b80f 2bbe 55a3 be3d 734d 103c
000003e0: 667d d7bd 88b7 133d cc51 edbd 8f13 f93b
000003f0: 847a fb3c d9c9 db3d 7f0e 0c3e ce22 343d

lstm.bias_ih f4 [128]
0.16373914 0.14453396 0.10528576 -0.11301689 0.17364462 -0.06650109 0.058290504 0.051828153
-0.1726715 0.0070478716 0.14813702 -0.052878622 0.003564988 0.048987463 -0.10804633 0.03095325
0.16532381 -0.13271327 0.16807978 0.00083378603 0.005704092 0.1301108 -0.16909723 -0.04664277
-0.028460916 -0.12660944 0.0795579 0.10990746 -0.07373052 0.008163704 0.17555052 -0.09128628
-0.044612616 0.14217266 0.10075005 -0.03939842 -0.15938015 -0.14222293 -0.13264559 -0.17240056
0.05541461 0.10925302 -0.16055812 -0.048078954 0.15321457 0.08723467 -0.10203766 -0.17514822
0.114158124 -0.13100912 0.083262876 -0.08012197 -0.01525355 0.034012042 0.09514353 0.16226965
0.008283071 -0.128745 0.11845156 0.08586948 0.050523695 -0.09089653 0.10670386 -0.0119395
-0.11108946 -0.10535203 -0.12117511 -0.11711101 0.044927154 -0.11096549 -0.06540288 -0.04395557
0.033869423 0.10602291 0.08256721 -0.08711559 -0.084869534 0.118315905 -0.102201305 -0.15932524
0.012057031 -0.10709211 -0.1471652 -0.045346405 0.14219385 0.07520493 -0.14551784 0.011176788
0.05106889 0.11445702 -0.09374113 -0.15045893 0.09329037 0.14727929 -0.14204407 0.049319487
-0.11869442 0.002066783 -0.021116072 -0.15566438 0.018464593 -0.03744829 0.09346463 -0.14122859
-0.021109752 -0.12120404 0.13708936 -0.1552025 0.118533134 0.1586658 0.16801718 0.08644
-0.15663856 -0.14023142 -0.11344681 -0.14732125 0.050434276 0.09838521 -0.1744287 0.07291602
-0.14031126 0.13781816 0.01593718 -0.0077345683 0.048026647 0.16728508 -0.107826665 -0.15779263
00000000: 3cab 273e b600 143e 0fa0 d73d 6675 e7bd
00000010: e5cf 313e b931 88bd 06c2 6e3d c249 543d
00000020: ccd0 30be d5f1 e63b 3bb1 173e 4197 58bd
00000030: 93a2 693b 14a7 483d 6547 ddbd ac91 fd3c
00000040: a54a 293e fde5 07be 1b1d 2c3e 6f92 5a3a
00000050: 64e9 ba3b c43b 053e d327 2dbe 7d0c 3fbd
00000060: de26 e9bc e8a5 01be 41ef a23d 2a17 e13d
00000070: 0700 97bd 0ec1 053c 84c3 333e 4df4 babd
00000080: b8bb 36bd b695 113e 0b56 ce3d 3d60 21bd
00000090: 8d34 23be e3a2 11be 3fd4 07be c689 30be
000000a0: 6efa 623d 0cc0 df3d 5969 24be 70ee 44bd
000000b0: 48e4 1c3e 17a8 b23d 1ff9 d0bd 0e5a 33be
000000c0: bccb e93d 4127 06be ba85 aa3d fd16 a4bd
000000d0: 07ea 79bc 3650 0b3d 9cda c23d 042a 263e
000000e0: b8b5 073c bbd5 03be bb96 f23d 57dc af3d
000000f0: eff1 4e3d f627 babd 8e87 da3d e59d 43bc
00000100: df82 e3bd cec2 d7bd a82a f8bd e6d7 efbd
00000110: 8905 383d e041 e3bd f2f1 85bd c10a 34bd
00000120: aaba 0a3d 8a22 d93d ff18 a93d a969 b2bd
00000130: 14d0 adbd 9c4f f23d eb4e d1bd 2826 23be
00000140: da8a 453c 1c53 dbbd 79b2 16be 27bd 39bd
00000150: 449b 113e 0b05 9a3d a102 15be d91e 373c
00000160: 9d2d 513d 7168 ea3d 59fb bfbd e811 1abe
00000170: 060f bf3d 62d0 163e 0074 11be 3b03 4a3d
00000180: 0f16 f3bd dd72 073b 9dfb acbc 7c66 1fbe
00000190: 0f43 973c 6163 19bd 626a bf3d 3a9e 10be
000001a0: 5cee acbc d339 f8bd 2761 0c3e 67ed 1ebe
000001b0: 80c1 f23d 4a79 223e b20c 2c3e 7407 b13d
000001c0: dc65 20be d398 0fbe cd56 e8bd 62db 16be
000001d0: 2c94 4e3d 2f7e c93d 709d 32be ff54 953d
000001e0: c1ad 0fbe 3420 0d3e b08e 823c 4372 fdbb
000001f0: 97b7 443d c84c 2b3e 3ad4 dcbd 6494 21be

lstm.bias_hh f4 [128]
-0.056940906 -0.017138408 -0.008878512 0.028769508 -0.066081844 0.0047580115 0.07167218 0.03218123
-0.014458317 0.02284164 0.08067813 0.07032355 -0.12239616 -0.14735572 -0.057151955 -0.11506106
-0.12908415 -0.16906966 -0.15039866 -0.056115422 0.015230832 -0.17482603 -0.07432502 0.11084002
-0.13058652 0.1506266 -0.09285252 0.17482993 0.019556388 -0.15313405 -0.1293357 -0.0549191
-0.10379751 0.022113156 0.0796767 -0.168067 0.07093423 0.013545771 0.021626906 0.08078746
-0.17028612 0.08682033 0.15503958 0.057374865 -0.15429702 0.14440519 0.08356343 -0.06893501
0.0714819 -0.1534646 -0.11701508 -0.07732323 -0.13732573 -0.083943166 0.0056507033 -0.07847208
-0.10513721 -0.11356732 -0.033631038 -0.026475335 -0.11192885 0.17042272 0.13243261 -0.15351047
-0.13209371 -0.06269704 0.010183262 -0.008602289 -0.06127526 0.053323366 0.16661361 -0.15126796
-0.021946436 -0.17099668 -0.08057336 -0.073738314 0.11418743 -0.1551653 -0.13080691 0.05469166
0.15609822 -0.09493731 -0.059204776 -0.010256202 -0.06611658 -0.16258647 -0.047281183 0.15744133
0.052876554 -0.036165543 0.13585113 0.09875784 0.14849073 0.07366263 -0.14892551 -0.12528381
-0.17147882 -0.16563503 -0.17386758 -0.08921261 -0.12762403 0.11165434 -0.16610724 -0.11843108
0.16733372 -0.13523462 0.009564543 -0.1434246 -0.13932034 -0.007822336 0.09945674 0.039555367
-0.030790688 -0.013945188 0.16016938 -0.006636514 -0.13887885 0.13593073 0.06587322 -0.028989904
0.14358313 -0.09091972 -0.086139165 0.0051632044 0.056504104 -0.015484387 -0.02341803 -0.11112202
00000000: de3a 69bd d965 8cbc 2e77 11bc 08ae eb3c
00000010: eb55 87bd 18e9 9b3b ddc8 923d 77d0 033d
00000020: 94e2 6cbc 641e bb3c 933a a53d cb05 903d
00000030: d7aa fabd 6be4 16be 2b18 6abd 22a5 ebbd
00000040: a32e 04be 9920 2dbe 1b02 1abe 49d9 65bd
00000050: bd8a 793c 9805 33be b737 98bd 1800 e33d
00000060: 79b8 05be dc3d 1a3e 7629 bebd 9e06 333e
00000070: b834 a03c 2ccf 1cbe 9470 04be daf2 60bd
00000080: ca93 d4bd a626 b53c 8a2d a33d c119 2cbe
00000090: f745 913d 15ef 5d3c e92a b13c e573 a53d
000000a0: 7c5f 2ebe dbce b13d b2c2 1e3e e801 6b3d
000000b0: 0a00 1ebe f4de 133e 4e23 ab3d cc2d 8dbd
000000c0: 1a65 923d d325 1dbe 9aa5 efbd a45b 9ebd
000000d0: 1e9f 0cbe 65ea abbd 8929 b93b f8b5 a0bd
000000e0: 2d52 d7bd fc95 e8bd b3c0 09bd cde2 d8bc
000000f0: f43a e5bd 4b83 2e3e 6a9c 073e d931 1dbe
00000100: 9343 07be 4e67 80bd b2d7 263c 9df0 0cbc
00000110: c4fb 7abd 9a69 5a3d c29c 2a3e fde5 1abe
00000120: 03c9 b3bc c119 2fbe a503 a5bd 1d04 97bd
00000130: 19db e93d a7e3 1ebe 3ff2 05be 5d04 603d
00000140: 36d8 1f3e 7e6e c2bd b580 72bd a109 28bc
00000150: 2168 87bd 117d 26be eaa9 41bd 4d38 213e
00000160: 1695 583d 5222 14bd 8f1c 0b3e 8d41 ca3d
00000170: f40d 183e 6fdc 963d ee7f 18be 664a 00be
00000180: 2598 2fbe 3b9c 29be 580a 32be 1ab5 b6bd
00000190: e0af 02be 08ab e43d 0418 2abe fe8b f2bd
000001a0: 8859 2b3e f27a 0abe 9ab4 1c3c e6dd 12be
000001b0: fea9 0ebe 4129 00bc faaf cb3d cf04 223d
000001c0: c13c fcbc 5c7a 64bc 7103 243e 1d77 d9bb
000001d0: 4236 0ebe 6d31 0b3e 8ae8 863d 3c7c edbc
000001e0: 7507 133e 1e34 babd bb69 b0bd 1930 a93b
000001f0: d970 673d 3ab2 7dbc 2bd7 bfbc f193 e3bd

linear1.weight f4 [64, 36]
0.08972911 0.03410531 -0.08592099 0.04885764 -0.077971786 -0.15238653 -0.020839395 0.013612507
0.15468311 0.008387611 -0.013849812 0.106624216 -0.10407011 0.10364064 0.037353035 0.13027129
-0.15393226 -0.13441092 0.10373619 -0.16177124 0.13115141 0.011257773 0.06265608 -0.03764652
0.10036599 0.033362817 0.081464455 0.073846124 -0.067767866 -0.14653654 0.13881972 -0.03441359
0.08317287 -0.15643218 -0.08359192 -0.056727957 0.14734645 -0.09356611 0.15067588 -0.030598158
0.008318169 -0.070508786 -0.10408184 -0.0008688362 0.05171763 0.15908459 -0.05684951 0.06472105
-0.048470978 -0.08501675 -0.057813037 0.054376017 -0.043345824 -0.040902272 0.061689027 -0.10925416
-0.103425205 0.010763888 -0.034366023 -0.15923384 -0.13060735 0.070411086 0.16420232 0.12883906
-0.11476399 0.09821024 -0.15969323 -0.072532736 0.028821757 -0.06837092 0.057339787 -0.083544895
0.091585144 -0.082330056 -0.10881386 0.14487545 0.06057776 -0.15430617 -0.13632502 0.028840821
0.03449926 0.15676236 0.15524635 -0.046254747 0.06835413 0.03423088 0.13853185 0.07808335
-0.14952645 -0.06942588 0.038708653 0.14149997 -0.057645436 0.046105325 -0.13281426 0.15149736
-0.09126011 0.14584658 -0.02929826 -0.14912589 0.04170761 0.11807366 -0.12617855 0.10950202
0.11409625 -0.08952302 0.019418428 -0.0022523222 0.023013819 -0.08291201 -0.029432578 0.12449124
-0.090158984 0.070836894 0.06308527 0.013115466 -0.01623993 -0.0074097463 0.16129972 -0.11095576
0.1294539 0.08652238 -0.031957675 0.067061596 -0.12298053 0.018809296 -0.037346385 0.051989436
0.078199424 0.11354056 0.12535979 -0.028196959 -0.107662186 -0.16582839 0.04053598 -0.10303363
0.09567384 0.09537603 0.019842355 -0.07258366 0.14469351 -0.09111179 -0.073514126 0.12504686
0.16033112 0.10164597 0.1434305 0.0707773 0.10899765 0.07498155 0.12425036 -0.12520312
0.111352555 0.14339706 0.119033836 0.13659503 -0.04715078 0.06990095 -0.06318465 0.101970956
-0.002940396 0.102132425 0.16365689 0.0644187 -0.09070728 0.1059578 0.039916232 0.130968
0.14301506 0.04538568 -0.15311311 0.031823833 -0.092580535 -0.089759156 0.10944134 -0.16282369
0.0037781706 0.07371353 -0.038992535 -0.1551499 0.11585697 0.0054048747 -0.12303489 0.032791443
-0.052498892 0.038187522 -0.03499832 0.019034464 -0.03097937 0.015280723 0.016467152 0.029562281
-0.094908744 -0.08870817 0.009586856 -0.030419093 1.0256174e-05 -0.106813274 -0.09326844 -0.046840522
-0.0682925 -0.11170018 0.076516636 0.09894982 -0.15747307 -0.11146314 -0.061789513 0.07990028
-0.1652538 0.13624159 -0.11410823 0.13747162 -0.10998819 -0.11012516 -0.10133249 -0.05700828
-0.11909083 -0.032040745 -0.012319363 0.14297198 -0.1480673 0.1419 0.0041671684 -0.030653931
-0.13677438 0.07500015 -0.14869006 0.08314229 -0.08642344 -0.14110328 0.093861975 -0.14768337
-0.0058375457 0.01996173 -0.07370887 -0.07280469 0.023131235 -0.12060656 0.12579533 0.07667579
0.07308128 -0.016715538 -0.009029764 0.10509626 -0.06458743 -0.022875562 0.05820117 -0.0032127646
-0.03728198 -0.010232859 0.06319521 0.10575263 -0.0016529055 -0.04176689 0.01786687 0.06717822
00000000: e5c3 b73d 02b2 0b3d 58f7 afbd f31e 483d
00000010: acaf 9fbd 370b 1cbe 61b7 aabc fe06 5f3c
00000020: 4065 1e3e 316c 093c 52ea 62bc cc5d da3d
00000030: b622 d5bd 8b41 d43d 7fff 183d d665 053e
00000040: 6ba0 1dbe 04a3 09be a473 d43d 5ca7 25be
00000050: 8e4c 063e 8672 383c d551 803d 3d33 1abd
00000060: af8c cd3d 73a7 083d d6d6 a63d a33c 973d
00000070: e1c9 8abd ad0d 16be c226 0e3e 44f5 0cbd
00000080: 8a56 aa3d c22f 20be 3e32 abbd 935b 68bd
00000090: fde1 163e 979f bfbd c74a 1a3e fda8 fabc
000000a0: ee48 083c e966 90bd dc28 d5bd 9cc2 63ba
000000b0: ded5 533d 12e7 223e 08db 68bd 788c 843d
000000c0: 8189 46bd 431d aebd 5dcd 6cbd 63b9 5e3d
000000d0: 648b 31bd 2489 27bd a2ad 7c3d a5c0 dfbd
000000e0: 98d0 d3bd 055b 303c 63c3 0cbd 320e 23be
000000f0: efbd 05be b033 903d a724 283e 63ee 033e
00000100: 6209 ebbd 7322 c93d 9f86 23be 0b8c 94bd
00000110: 9b1b ec3c 0e06 8cbd 20dd 6a3d 9619 abbd
00000120: fe90 bb3d a99c a8bd cdd9 debd 3b5a 143e
00000130: 6320 783d 7002 1ebe c998 0bbe 9643 ec3c
00000140: 194f 0d3d 5086 203e e6f8 1e3e 9e75 3dbd
00000150: 40fd 8b3d ae35 0c3d 4bdb 0d3e 2aea 9f3d
00000160: 761d 19be 282f 8ebd f78c 1e3d 5ee5 103e
00000170: 9f1d 6cbd f0d8 3c3d 7600 08be 2022 1b3e
00000180: 95e6 babd ce58 153e e802 f0bc 75b4 18be
00000190: 99d5 2a3d 9ad0 f13d f334 01be 9842 e03d
000001a0: 4bab e93d d857 b7bd 6513 9f3c b29b 13bb
000001b0: 7a87 bc3c c6cd a9bd 971c f1bc 43f5 fe3d
000001c0: 46a5 b8bd ef12 913d da32 813d 40e2 563c
000001d0: 9a09 85bc 75cd f2bb c12b 253e c63c e3bd
000001e0: 908f 043e a532 b13d 0de6 02bd 9757 893d
000001f0: 37dd fbbd f415 9a3c 86f8 18bd e0f2 543d
00000200: 0527 a03d f487 e83d 515e 003e 4ffd e6bc
00000210: fe7d dcbd ebce 29be 0e09 263d 4c03 d3bd
00000220: a5f0 c33d 8254 c33d 6f8c a23c bea6 94bd
00000230: 892a 143e d198 babd 938e 96bd 490c 003e
00000240: d72d 243e c32b d03d 72df 123e b0f3 903d
00000250: 293a df3d ed8f 993d f976 fe3d 3f35 00be
00000260: cf0c e43d aed6 123e 03c8 f33d 91df 0b3e
00000270: 2d21 41bd 3b28 8f3d f466 81bd 26d6 d03d
00000280: a9b3 40bb ce2a d13d ac95 273e f4ed 833d
00000290: bdc4 b9bd 6700 d93d 347f 233d 7a1c 063e
000002a0: 8a72 123e 56e6 393d afc9 1cbe b559 023d
000002b0: dd9a bdbd a6d3 b7bd c822 e03d 41bb 26be
000002c0: 2f9b 773b 1ff7 963d a3b6 1fbd 9edf 1ebe
000002d0: 6b46 ed3d 601b b13b b7f9 fbbd 5250 063d
000002e0: 1409 57bd 856a 1c3d 665a 0fbd 2aee 9b3c
000002f0: 73c8 fdbc ff5b 7a3c 1fe6 863c 992c f23c
00000300: 845f c2bd a1ac b5bd 3012 1d3c 7631 f9bc
00000310: ef11 2c37 ebc0 dabd 8603 bfbd d9db 3fbd
00000320: f0dc 8bbd 10c3 e4bd c1b4 9c3d 34a6 ca3d
00000330: 9f40 21be c946 e4bd 0017 7dbd c2a2 a33d
00000340: 4b38 29be ea82 0b3e 93b1 e9bd 5cc5 0c3e
00000350: 7d41 e1bd 4d89 e1bd 6987 cfbd 8481 69bd
00000360: e5e5 f3bd 283d 03bd 27d7 49bc 3f67 123e
00000370: f49e 17be 3c4e 113e be8c 883b f41d fbbc
00000380: 950e 0cbe ae99 993d 3542 18be 8146 aa3d
00000390: c6fe b0bd 617d 10be b53a c03d 4f3a 17be
000003a0: e248 bfbb c886 a33c adf4 96bd a01a 95bd
000003b0: b77d bd3c 9200 f7bd 7ed0 003e 3208 9d3d
000003c0: a3ab 953d 06ef 88bc 93f1 13bc b53c d73d
000003d0: 6a46 84bd 8865 bbbc 5a64 6e3d 3f8d 52bb
000003e0: fdb4 18bd b9a7 27bc 7e6c 813d d694 d83d
000003f0: 4ea6 d8ba c213 2bbd 8b5d 923c bc94 893d

linear1.bias f4 [64]
0.0026065498 0.1334751 -0.1225611 -0.043317173 -0.09066812 0.114506565 -0.06880003 0.060225256
0.13495961 -0.06510959 -0.13843861 -0.036479138 0.16038267 0.15425718 -0.11338332 -0.13336247
-0.113934085 -0.11460716 -0.16454999 -0.16320074 -0.09878459 -0.058403604 -0.083974324 0.06713959
-0.02406115 0.14976028 -0.057190735 0.04617661 -0.1339441 -0.13730717 -0.10105998 -0.14776103
0.10858561 -0.15980765 0.028297722 -0.056817986 0.060761806 0.030758204 -0.04064823 0.13446853
-0.12588544 0.09284352 0.018501818 -0.073221736 -0.12289183 -0.05764169 0.04138869 0.041984197
0.018129706 0.13426742 -0.008616873 0.055966325 -0.1261372 -0.024482846 -0.1435182 0.10271254
0.13425204 -0.0661261 0.01794827 0.047108643 0.038339067 -0.04601132 -0.10053864 -0.053427838
00000000: a6d2 2a3b b2ad 083e 5001 fbbd 596d 31bd
00000010: 35b0 b9bd 6b82 ea3d 08e7 8cbd c2ae 763d
00000020: da32 0a3e 2d58 85bd dac2 0dbe 266b 15bd
00000030: 5b3b 243e 98f5 1d3e 8435 e8bd 2c90 08be
00000040: 4656 e9bd 29b7 eabd cb7f 28be 181e 27be
00000050: 934f cabd 9e38 6fbd bbfa abbd 7b80 893d
00000060: e41b c5bc c25a 193e d540 6abd af23 3d3d
00000070: a428 09be 409a 0cbe 89f8 cebd ab4e 17be
00000080: 2262 de3d 9ea4 23be a0d0 e73c fab9 68bd
00000090: 5fe1 783d a1f8 fb3c c27e 26bd 1eb2 093e
000000a0: 1de8 00be be24 be3d 2091 973c 47f5 95bd
000000b0: b6ae fbbd b119 6cbd 3087 293d 9ff7 2b3d
000000c0: c084 943c 667d 093e c92d 0dbc f23c 653d
000000d0: 1c2a 01be 4090 c8bc 6ff6 12be f45a d23d
000000e0: 5e79 093e 1f6d 87bd 4008 933c fef4 403d
000000f0: 6d09 1d3d 5e76 3cbd 34e7 cdbd 26d7 5abd
