Endgame/pytorch_models/TD3_best_kivy-car_critic.pth (torch_old, 187706 bytes, 54 tensors)

conv1_1.0.weight f4 [16, 1, 3, 3]
000000 f9 c1 44 be b9 91 03 be 84 a0 2b be 99 d1 47 be
       -0.1921462 -0.12848558 -0.1676045 -0.19513549
000010 71 28 ab bd d9 06 0d 3e 84 80 ac 3d 0f 09 e6 3d
       -0.08357323 0.13772143 0.0842295 0.112321965
000020 56 97 aa be e9 4a 8e be 0c a6 5c bd 81 2c 05 bc
       -0.33318585 -0.27791527 -0.053869292 -0.008128286
000030 7f c1 56 3e 9c a8 90 be 1e d7 a9 be e0 5c cb bd
       0.2097225 -0.2825364 -0.33171934 -0.09929824
000040 42 ad 8e be 38 47 91 bd ea b3 27 bb 8e 31 47 be
       -0.2786656 -0.07093662 -0.0025589415 -0.19452497
000050 d1 39 91 be 65 c4 87 be e8 65 a6 3e 45 2d d2 bd
       -0.28364423 -0.26517025 0.32499623 -0.10262541
000060 a3 40 83 3e e5 a0 ac bc 87 f7 f7 bd 43 95 1b bc
       0.2563525 -0.021072814 -0.12107759 -0.009496036
000070 a1 eb 8c be db 60 57 3e 36 3a 3a be 05 2b 87 3e
       -0.2752352 0.21033041 -0.18186268 0.2640001
000080 05 6f c3 3d 87 8c 9b 3e b5 8c 2a 3e f1 aa 86 3d
       0.0954266 0.3038065 0.16655238 0.06575573
000090 82 6e 31 3e f0 93 32 3e a3 a0 94 3e 81 b7 30 3e
       0.17327312 0.17439246 0.29028806 0.17257501
0000a0 62 60 99 3e 04 a1 52 be 20 89 a3 3d 22 21 2e be
       0.29956347 -0.20569235 0.07985139 -0.17004827
0000b0 54 49 a5 be 0e 3d 1f 3e 61 3c a5 be 5f ef 07 3e
       -0.32282507 0.15550634 -0.32272628 0.13274907
0000c0 15 10 12 be 51 69 09 be da 7c 42 3e ae eb 08 3e
       -0.14263947 -0.13419081 0.1899294 0.13371155
0000d0 43 dc 4a 3e cb 04 a6 3e 73 e7 35 be b9 66 a1 be
       0.19810586 0.32425532 -0.17764072 -0.31523684
0000e0 13 31 a3 be f9 c5 0f 3e e4 ee 87 3e 99 4f 8b 3e
       -0.31873378 0.14040364 0.26549447 0.27209166
0000f0 a3 6c 37 bd d8 f5 9f be b0 44 9e bd 72 99 66 be
       -0.04478134 -0.3124225 -0.07727945 -0.22519472
000100 d4 ff d5 bd 43 67 93 be dd cd 2b be 12 12 a8 3c
       -0.10449186 -0.2878972 -0.1677775 0.02051643
000110 87 08 9e 3e 28 27 28 be a8 ad 19 be d5 ff 87 be
       0.3086588 -0.16421187 -0.15007651 -0.26562372
000120 49 0d 64 be f3 bd 34 3e 18 f3 9c be 26 04 f0 bb
       -0.22270693 0.17650585 -0.30654216 -0.0073247133
000130 c0 e2 a0 3e 1e 29 52 3e 5a 48 a2 3e fa 38 a0 bd
       0.31422997 0.20523497 0.31695825 -0.078233674
000140 cb a4 c2 bc 9f 3a 8d bd c4 5e 87 be fc cc 4f 3e
       -0.02376022 -0.06895947 -0.26439488 0.20293039
000150 39 8c 4e be 97 93 a3 bd 1a 65 28 be b8 9b 1a bc
       -0.20170678 -0.07987135 -0.16444817 -0.00943654
000160 cd 34 85 be a7 e9 7e 3e 55 a2 2c 3d 45 89 3e be
       -0.26016846 0.24893819 0.042147 -0.18607052
000170 22 e2 2c bd 39 7b 5e be a0 b3 25 be fb 37 16 3d
       -0.042207845 -0.21726693 -0.16181803 0.03667448
000180 d4 5d 24 3e 89 84 88 be c2 a8 7e bc 1e 21 99 3e
       0.16051418 -0.26663616 -0.015543165 0.2990808
000190 9e 81 52 3e 28 cb 01 3e 59 33 eb 3d c1 0c 19 3e
       0.20557258 0.12675154 0.11484403 0.14946271
0001a0 bc 65 63 be be af 11 bd 89 7f 93 3e c7 a3 8d be
       -0.22206777 -0.03556799 0.2880824 -0.27664015
0001b0 84 4f 71 be 04 dd 11 3e b0 f1 4b 3e 6b fd 82 3e
       -0.23565489 0.14244467 0.19916415 0.25583968
0001c0 09 78 db 3d 43 c7 96 3e 58 47 8b 3e ef fb ba bd
       0.10716254 0.294489 0.27202868 -0.09130084
0001d0 a1 6f 9c bb 80 0f a1 be d2 89 36 3e c6 4b 7f be
       -0.0047740494 -0.31457138 0.17826012 -0.24931249
0001e0 97 38 35 3c 5f 91 8b 3d a8 ec 52 be e5 35 e3 3c
       0.011060855 0.06814837 -0.2059809 0.02773566
0001f0 10 08 4c bd 3f 92 8c be 56 4d a6 be 74 28 66 3e
       -0.049812376 -0.27455327 -0.32480878 0.22476369
000200 a2 31 a2 3e 2c 7d 38 3e f3 bb 2b be a0 b9 c1 3d
       0.31678492 0.180165 -0.16770916 0.09459233
000210 d2 50 30 3e 7d e9 44 be 20 1b 84 be 20 e6 33 bd
       0.1721833 -0.19229694 -0.25801945 -0.043920636
000220 d0 66 10 3e 62 21 77 bd e6 d3 75 be 00 ff dc bd
       0.1410172 -0.06033457 -0.24006614 -0.10790825
000230 c6 35 85 3b 56 77 2b be f5 50 f0 bd f5 c2 20 3e
       0.004065248 -0.16744742 -0.11734191 0.1569937

conv1_1.0.bias f4 [16]
000000 69 58 a4 bc fd b1 99 be b9 a1 85 be a5 e3 0a 3e
       -0.020061688 -0.30018607 -0.26099947 0.13563402
000010 3e 98 9e be 37 e9 80 bd d1 98 a0 be 76 34 b6 3d
       -0.30975527 -0.06294482 -0.3136659 0.08896725
000020 73 4b 7c be f8 0c a5 be 3b c9 f0 3d f2 95 4f be
       -0.24638157 -0.32236457 0.11757132 -0.20272043
000030 0b 49 95 be 5c 09 80 be 99 1f 45 3e 09 9f 7d be
       -0.2915729 -0.2500714 0.19250335 -0.24767698

conv1_1.1.weight f4 [16]
000000 05 0b 80 3f d9 1c 80 3f dd 1c 80 3f c7 af 7f 3f
       1.0003363 1.0008804 1.0008808 0.9987759
000010 06 20 80 3f fb af 7f 3f 48 d8 7f 3f 96 ba 7f 3f
       1.0009773 0.998779 0.99939394 0.9989408
000020 15 d5 7f 3f 90 1b 80 3f 3c c4 7f 3f 9b 02 80 3f
       0.9993451 1.0008411 0.99908805 1.0000795
000030 51 24 80 3f 4e 26 80 3f 98 13 80 3f 16 c8 7f 3f
       1.0011083 1.001169 1.000598 0.9991468

conv1_1.1.bias f4 [16]
000000 8b 8e c0 39 56 59 65 3a 68 c4 50 3a 3b 38 9e ba
       0.00036727297 0.0008748969 0.0007963837 -0.0012071201
000010 f0 de 8e 3a 81 53 9d ba 3f f5 2f ba 75 3a 8b ba
       0.0010900181 -0.0012003036 -0.0006712265 -0.001062228
000020 b4 7e 20 3a 41 48 65 3a 6b 2d 70 ba a8 f2 d9 38
       0.0006122396 0.00087464234 -0.0009162041 0.000103925646
000030 4f 07 89 3a 77 a8 a0 3a 41 6e c2 39 a0 b1 62 ba
       0.0010454449 0.0012257238 0.0003708471 -0.0008647684

conv1_1.1.running_mean f4 [16]
000000 e1 a0 96 be 0a 94 3c bf dc 8f cf be 44 21 bf 3e
       -0.29419616 -0.7366339 -0.40539443 0.37330067
000010 74 30 10 be fe 09 0a 3e ca ae 02 bf a4 1c 90 be
       -0.14080983 0.13480374 -0.51047957 -0.2814685
000020 aa 3f d1 bd 44 3b 0a bf e5 7a f7 bd 31 2c d0 3c
       -0.10217221 -0.5399668 -0.12083987 0.025411697
000030 72 97 5b 3d fa cb 0a bf 27 e3 52 3e d0 11 d0 be
       0.053611226 -0.54217494 0.20594464 -0.4063859

conv1_1.1.running_var f4 [16]
000000 0c 82 e8 3d af 59 91 3e 97 5f 10 3d bf 52 ae 3d
       0.113529295 0.28388736 0.03524741 0.08511876
000010 ef f1 5b 3d f7 68 73 3d 94 1c 89 3d 5d f3 53 3e
       0.053697523 0.059426274 0.06694904 0.20698304
000020 b1 68 0c 3d 58 81 92 3d ec 90 af 3d 48 f9 ae 3d
       0.03427953 0.071535766 0.085725635 0.085436404
000030 3c f2 34 3e 3a 54 02 3e d3 33 27 3b e7 9a 24 3d
       0.1767053 0.12727442 0.0025513067 0.04018679

conv2_1.0.weight f4 [16, 16, 3, 3]
000000 a0 62 75 bb 77 8b a7 3d 6b 9a f8 3b 41 80 80 bd
       -0.0037442818 0.08180898 0.0075867674 -0.062744625
000010 df a0 ed bc 35 44 22 bb 26 fc fe bb 42 87 04 bc
       -0.029007373 -0.0024759893 -0.0077815233 -0.008088889
000020 a3 a5 8a ba 42 94 3c bd 7a 8f 80 bd 60 ec ac bd
       -0.0010577928 -0.046039827 -0.06277366 -0.084435225
000030 b2 51 95 3d 60 c9 ab 3c 10 05 2b bd a4 32 99 bd
       0.07290973 0.020970047 -0.041752875 -0.07480362
000040 a3 ea 15 3d c0 70 3e 3d 32 40 52 3c 74 a9 9d 3b
       0.03660072 0.046494246 0.012832688 0.00481146
000050 f9 a8 d8 bc 5e 57 0a bd 3f 4f 19 bd 79 bf 74 bc
       -0.02644776 -0.033774726 -0.03742909 -0.014938229
000060 3f 42 99 bc 87 1e 2b bd 66 4b 35 3d 27 d0 96 bd
       -0.018708346 -0.04177716 0.04426136 -0.07363921
000070 32 69 c0 bc b4 5d 53 bd 16 a5 3c bd dc 22 52 3d
       -0.023487661 -0.051603034 -0.046055876 0.051302776
000080 e6 6a bf bc f8 cc 69 3d 2d 16 06 bd 0f 6c 89 3d
       -0.023366403 0.05708024 -0.032735992 0.06710064
000090 9a 24 47 3d 38 c3 5e 3d e3 65 d5 3c ef 61 3f bd
       0.04861889 0.054385394 0.02604956 -0.046724256
0000a0 d3 c3 90 bb 63 07 13 3d 8d d3 ef 3b 77 53 a3 bd
       -0.0044178753 0.035895716 0.00731892 -0.07974904
0000b0 bd 61 8c 3d 9f cb 52 bd ff 17 9c bd 17 b5 31 bd
       0.068545796 -0.05146372 -0.076217644 -0.04338559
0000c0 06 ff 93 bb 60 2a 2c bd 0c 29 9d 3d b1 22 8c 3d
       -0.004516485 -0.0420326 0.07673845 0.06842554
0000d0 ca da 54 3d 08 6a 00 3d ae 38 54 3d f9 1c 88 bd
       0.051966466 0.03135112 0.051811866 -0.06646151
0000e0 91 42 94 3d b4 cb ac bb e2 dc 98 bd db dc 60 3d
       0.07239259 -0.0052733067 -0.07464005 0.054898124
0000f0 20 0c 5d 3d 47 70 64 3c 2f 33 99 3d 5d 47 80 3c
       0.05396664 0.013942785 0.074804656 0.015659029
000100 d1 fb 01 bd 88 a1 9a 3c a4 d7 a6 bc 8b 4b 41 3b
       -0.03173429 0.018875852 -0.020366497 0.002949449
000110 a7 79 e9 3c 96 e2 1b 3b eb 1d a6 bd f2 81 05 3d
       0.028500391 0.0023786179 -0.08111175 0.03259463
000120 ac 31 5c 3d cf 22 88 bc 4f 31 1d bd e6 b8 bf 3c
       0.05375831 -0.01661816 -0.038377102 0.023403596
000130 b9 f1 23 3d a4 03 a1 3d bc f4 a7 bd 83 d0 94 3c
       0.040025447 0.078620225 -0.08200976 0.018165832
000140 dd 0b 96 bd 9f 62 6a bd 77 41 a7 3c e9 c9 30 bd
       -0.073264815 -0.05722296 0.020416958 -0.043161307
000150 a5 69 9d 3c f6 85 4f bd 47 52 8d 3c be b9 ae bc
       0.019215414 -0.050664864 0.017251147 -0.021328803
000160 09 e1 5a bd 21 42 74 3d 8f e6 82 3c c0 4e 99 3d
       -0.053437266 0.059633378 0.01597908 0.074857235
000170 88 d4 41 3d df b1 fb 3c 13 07 be bc dc dc 9e bc
       0.047321826 0.030724464 -0.023196733 -0.019392423
000180 a2 fb 7f bd de 60 0b bd 73 4f c7 bc c2 78 01 bd
       -0.062495835 -0.034027927 -0.024329877 -0.031609304
000190 99 33 69 bd df a7 0c bd 03 f0 f8 3c a0 94 fe bc
       -0.056933973 -0.03433978 0.030387884 -0.03107673
0001a0 07 ff ee bc 43 31 72 bd ef d5 64 3c 2d 72 2a bd
       -0.02917434 -0.05912901 0.013967021 -0.041612793
0001b0 8c d5 59 3d 36 84 8a bc 5d ac 0c bd 4f 42 4a 3d
       0.05318217 -0.016908746 -0.034344066 0.049379643
0001c0 a2 e9 ff 3c 42 10 bc 3c f8 f1 1b 3d 6d 9f 79 3d
       0.031239334 0.022956971 0.038072556 0.060943056
0001d0 c9 16 cc 3c f6 c6 9c bd e5 91 98 bd 3c c8 5e 3c
       0.024913209 -0.07655136 -0.07449702 0.013597544
0001e0 93 61 5a 3d 9e 7e a2 bb 27 2b 15 3d 48 da 2d bd
       0.05331571 -0.0049589416 0.036418106 -0.042444497
0001f0 44 16 9a bd d9 e6 c9 3c 13 3a 87 3d 26 8e 9c bd
       -0.07523778 0.02464621 0.06602874 -0.076443
000200 82 8b b5 bb 76 66 5a 3d c5 8b 6b 3c f0 13 71 3c
       -0.0055403123 0.05332037 0.014376585 0.014714226
000210 f9 6f 93 ba 23 9d e9 bc 37 86 9e 3d 18 56 1c 3c
       -0.001124858 -0.028517311 0.07740443 0.009542011
000220 b1 4d 5f bd 1f 8d 75 bd 4c 82 92 bb 21 76 37 bd
       -0.05451745 -0.059949037 -0.004471099 -0.04479039
000230 99 8b 36 3c d8 6f e1 3b 10 c8 65 3d 01 6f 69 3d
       0.011141681 0.006879788 0.056098998 0.056990627
000240 ec 5d 95 3d d1 1f 68 bd 88 e0 2c bd 22 1b 41 3d
       0.07293305 -0.056670967 -0.042206317 0.047145016
000250 ba 2b a5 3d da 16 be 3c 88 60 96 bd de 45 35 3c
       0.08064981 0.023204256 -0.073426306 0.011064021
000260 b3 21 d8 3c 1e 55 74 3d b7 3d f4 bb e2 b3 dc 3c
       0.026383257 0.059651487 -0.007453646 0.026941244
000270 43 c3 35 3d 8c 5c a2 3d 28 32 17 bd bf 11 60 3d
       0.04437567 0.07927808 -0.036913067 0.054704424
000280 50 c3 d3 3c a3 bb a8 bd 44 9e 53 3c 32 60 03 3d
       0.025849968 -0.08238914 0.012916151 0.03207416
000290 a4 83 91 bd d8 7b 90 bb f6 2d 22 3d 4b 30 9c 3d
       -0.071051866 -0.0044092946 0.039594613 0.07626399
0002a0 26 05 1e 3d b4 c7 3d bc c9 7e 10 3d 00 1c 18 bd
       0.03857913 -0.0115832575 0.03527716 -0.037136078
0002b0 6c 51 03 3d 42 13 3d 3d e9 fb cf bc 47 8b 6b bd
       0.03206007 0.046160944 -0.025388675 -0.057505872
0002c0 bc 00 52 bd 2c 1d 9a 3d ce b1 87 3d 73 0a 36 bd
       -0.05127023 0.07525095 0.066257104 -0.04444356
0002d0 d0 e0 de bb f4 18 96 bd bd 2e 32 3c 47 eb c3 bc
       -0.006801702 -0.07328978 0.010875401 -0.0239159
0002e0 44 b7 12 bb 41 55 20 bd c6 a3 66 3d 48 42 e6 3c
       -0.0022387067 -0.039143804 0.05630853 0.028107777
0002f0 59 42 45 3d 42 e6 a2 3b f0 45 4f 3d eb 13 82 bd
       0.048158977 0.0049712965 0.050603807 -0.06351455
000300 5a 48 3f bd 62 df 0c bd 25 26 2b bd 2b 79 e4 3c
       -0.04669986 -0.034392722 -0.041784424 0.027889809
000310 1b 00 8a 3d 96 07 1f 3d 38 6e a4 bd 3e a7 6c 3d
       0.06738301 0.038825594 -0.08028835 0.057776682
000320 a4 7c ed 39 f9 81 5e bc 9b 05 1d bd 35 a7 05 3d
       0.00045297027 -0.013580793 -0.038335424 0.032630164
000330 46 77 8c 3c 8a c1 8c ba d5 31 9c bb fd 18 1b bd
       0.017146718 -0.0010738831 -0.0047666826 -0.037865628
000340 66 34 0c bd ee 09 5e bd e7 94 7a 3d 6b 44 90 3d
       -0.03422966 -0.05420869 0.06117716 0.070443
000350 89 ec 7b bc a5 45 50 3d 15 a9 7a 3d de cd b5 bc
       -0.015376219 0.05084767 0.061196405 -0.022192892
000360 ac 92 d6 3b 54 cb cf 3c 74 7f c0 bc 85 8f 97 3d
       0.0065482464 0.02536551 -0.023498274 0.07400421
000370 fa 87 9d bd c1 e9 46 bc 27 02 32 3d d8 a1 9b 3d
       -0.07691951 -0.012140692 0.043459084 0.075992286
000380 3a 05 26 bd 93 d1 a6 3c 21 6f 2c bd 4a 23 ab 3d
       -0.04053233 0.020363605 -0.04209817 0.0835634
000390 09 91 65 3d b7 1d 70 3d 70 c4 41 3c 3e bf a0 3c
       0.05604652 0.05862209 0.0118266195 0.019622441
0003a0 5a a6 9e bd 5b f8 7a 3d ee a2 64 b9 67 72 f4 bb
       -0.07746573 0.061272006 -0.0002180447 -0.007459927
0003b0 ae 13 91 3d fc ae 6d bd 9f 40 f8 bb b4 c7 7b 3d
       0.07083832 -0.058028206 -0.007576063 0.06146975
0003c0 94 63 53 ba ce 32 a7 bd 5d 33 b8 bc 49 c4 b5 ba
       -0.00080638495 -0.08163987 -0.02248543 -0.0013867702
0003d0 f8 90 b1 bc a3 07 5f 3c 20 db 8c bd 7b 8a 98 bd
       -0.021675572 0.013612661 -0.06877732 -0.07448288
0003e0 bd 93 8a 3d 45 49 8a bb 1b f1 36 bd 1d 30 6c bd
       0.0676646 -0.00422016 -0.04466353 -0.057663072
0003f0 a4 8e 6d bd 8c 81 8f 3c 3e 1a 89 3c e9 a5 18 bd
       -0.05799736 0.017517827 0.016736146 -0.0372676

conv2_1.0.bias f4 [16]
000000 5d bf 48 3d 69 e6 8f 3d e4 9e 8d 3d 7d 9e 90 bc
       0.049010623 0.07026369 0.069150716 -0.017653698
000010 ea 32 f8 3b 9c 41 5b 3d 5b 51 81 3c 87 dd 00 3d
       0.007574429 0.053529367 0.015785864 0.031461265
000020 6e df 90 bc 27 86 9e ba 8f 2a 49 bc f1 56 3a bd
       -0.017684665 -0.0012094424 -0.012278213 -0.04549307
000030 55 34 63 bd 2d 5e ce 3c 58 ae 64 bc 1c 9f de 3b
       -0.05546983 0.02519139 -0.013957582 0.0067938697

conv2_1.1.weight f4 [16]
000000 e7 1f 80 3f 75 c0 7f 3f 64 18 80 3f 73 23 80 3f
       1.0009736 0.9990304 1.0007443 1.0010818
000010 04 11 80 3f 1b 0c 80 3f eb 20 80 3f 45 c2 7f 3f
       1.0005193 1.0003694 1.0010046 0.99905807
000020 ad 12 80 3f cc 1a 80 3f e9 10 80 3f 7c 1f 80 3f
       1.0005699 1.0008178 1.000516 1.0009608
000030 2c b9 7f 3f d3 1f 80 3f 5c b7 7f 3f dd 09 80 3f
       0.99891925 1.0009712 0.9988916 1.000301

conv2_1.1.bias f4 [16]
000000 0a f1 9f 3a 7a 5c 7c ba f5 5f 4b 39 73 e0 89 3a
       0.0012202573 -0.0009626817 0.00019395335 0.0010519162
000010 8d c9 18 3a 70 db 5a 3a f0 49 82 3a 9b 8f 6b ba
       0.0005828373 0.0008348739 0.0009940248 -0.00089859375
000020 47 07 1b 39 87 37 6d 3a dd eb 9a 39 51 c4 72 3a
       0.00014784663 0.0009049107 0.000295489 0.0009260821
000030 a7 1e 89 ba 48 67 7a 3a 05 1e 96 ba 6b d9 08 3a
       -0.0010461406 0.0009552133 -0.0011453038 0.0005220386

conv2_1.1.running_mean f4 [16]
000000 0d ba 89 bd e1 2f f2 3e 81 f2 83 3c 6c 56 8d bd
       -0.067249395 0.47302154 0.016106846 -0.06901249
000010 42 9f b5 3e cf 93 4c 3e 61 61 1c 3e 6f 53 a5 be
       0.35473067 0.1997826 0.15271522 -0.32290217
000020 0c 95 fd bd 1b c4 ab 3e 4f fb a7 3d d9 fa cf be
       -0.12381944 0.33548054 0.0820223 -0.4062107
000030 5b 31 32 3e d9 e5 a7 3e 11 c6 0a 3f 04 a3 a9 3e
       0.1740164 0.32792547 0.54208475 0.33132184

conv2_1.1.running_var f4 [16]
000000 77 26 7d 3d dc 4a 7b 3e 7d 0e d4 3c 9c 8d e6 3d
       0.06180426 0.24540275 0.025885815 0.112574786
000010 b0 68 c1 3c be 27 0a 3f d4 b1 15 3d 7a a5 9e 3d
       0.02360949 0.5396689 0.036546543 0.07746406
000020 e5 58 f3 3c 7f 9f 20 3d 25 3b 80 3c cf 18 96 3d
       0.029705474 0.039214607 0.015653202 0.073289506
000030 95 f6 06 3e 99 75 fb 3c 49 13 46 3d ce a9 57 3d
       0.13180001 0.030695723 0.048358236 0.052652173

conv3_1.0.weight f4 [16, 16, 3, 3]
000000 bb 2f 96 bd 0d 27 4e ba de 56 1a 3c 83 71 a2 3c
       -0.073333226 -0.00078640954 0.009420125 0.019829517
000010 bb 12 83 3d 8e c6 bf 3c 5f 05 52 3d 1d 43 80 bc
       0.06400057 0.023410108 0.051274654 -0.015657002
000020 5d 50 8e bd ce 5e 67 3d 6b 69 ca 3c ca f5 db bb
       -0.06948922 0.056486897 0.02470847 -0.00671265
000030 8e 02 51 3b 0f f5 a4 bd cb 42 9d 3c 0b cf 6e bd
       0.0031892392 -0.08054554 0.019196888 -0.05830292
000040 48 ea 12 3d 51 cd 8f 3d 82 a1 6e bd 7b 64 33 bd
       0.03586796 0.07021583 -0.058259495 -0.043796998
000050 de c2 79 3d bf b9 a4 3c 4c f6 4e bc ab 16 8f bc
       0.060976855 0.020108102 -0.012631964 -0.017466864
000060 03 ab a0 3d 6e c1 e5 bc e4 4b 8b bd 1a 38 85 3d
       0.07845118 -0.028046336 -0.06801584 0.06504841
000070 07 43 53 bd 6a 27 12 3d 1c 7a 67 3d d7 de c0 ba
       -0.051577594 0.03568212 0.056512937 -0.0014714849
000080 74 4a 5e 3d 38 59 09 bd 88 b4 f4 3c c5 67 c5 3c
       0.054270223 -0.03353235 0.02987124 0.024097333
000090 c4 1b 46 3d be 0d 76 3d a7 e5 06 bc df f7 0b 3d
       0.048366323 0.0600717 -0.008233464 0.034171935
0000a0 71 f2 be bc 15 98 62 bd 9c 0a 97 3d 3c 3b 7d bd
       -0.023308964 -0.055320818 0.073750705 -0.06182407
0000b0 f9 cd a5 bd e1 90 70 bc b8 98 7d bd 19 95 31 3d
       -0.08095927 -0.014682979 -0.061913222 0.04335508
0000c0 ef cc 8f 3d 41 65 9d 3d c5 e6 4e bd 02 21 3d bc
       0.0702151 0.07685328 -0.050513048 -0.011543514
0000d0 21 51 2f 3d f9 25 00 bc ca 4d 4b 3d 0f 35 f1 bc
       0.04280198 -0.007821553 0.049634732 -0.029444246
0000e0 4a 50 88 3d bf 02 29 bd 81 b6 80 3d bd ab 89 bd
       0.06655939 -0.041262385 0.0628481 -0.067222096
0000f0 b7 83 8e 3d 51 31 e8 bc e9 e0 42 3b e0 1b 10 bc
       0.06958716 -0.028343828 0.0029736108 -0.008795708
000100 fd 8d 60 bc af e5 7d 3d 65 d1 94 3d a8 5b 25 bd
       -0.013705728 0.06198662 0.07266501 -0.040370613
000110 61 7f 95 3b 8d 9a 06 3c 5d 91 fb 3c f4 fd 14 bc
       0.004562304 0.008215559 0.030708963 -0.00909375
000120 e3 75 a7 bd 0d f3 95 3d 18 d6 a8 3d 6b 67 f8 bc
       -0.08176782 0.07321749 0.0824396 -0.030322751
000130 4f 57 28 3c 0f 8b a0 3d 96 3d a8 bc b6 68 5a 3d
       0.010274722 0.07839023 -0.020537179 0.053322516
000140 7d df 9f 3d 0d ca 9d 3c fa 82 3f 3d 9b 7e 88 3d
       0.07806299 0.019261384 0.04675577 0.06664773
000150 39 1a 48 3d c5 82 a7 bd 80 9f 2b 3d 0f e5 16 bd
       0.048853133 -0.08179239 0.041900158 -0.03683954
000160 b0 83 91 3b 59 7d c8 3c ea 95 ea 3c df cf 7d bd
       0.004440747 0.024473833 0.028635938 -0.06196582
000170 0e b1 1f 3c e4 17 ce bc 99 89 17 3c a7 48 47 bd
       0.009746803 -0.025157876 0.009249114 -0.04865327
000180 da be 3c bd 4c b1 98 3d d3 a2 84 3d 92 ad a5 bc
       -0.046080448 0.07455692 0.06476369 -0.020224366
000190 b7 53 49 bd 44 72 50 3d 11 9e c2 bb f8 43 43 3d
       -0.049152102 0.050890222 -0.005939253 0.047672242
0001a0 a4 20 9b 3c c6 64 45 bc 05 44 a7 3d db 19 23 3d
       0.018936463 -0.012047952 0.081672706 0.03981958
0001b0 e5 f2 d5 3c 22 ef 75 3c 57 94 45 3d c8 cb 51 bd
       0.026116798 0.015010627 0.04823717 -0.05121973
0001c0 e4 78 5f bd 62 2e 63 3d 82 23 02 bd cc f0 3d bb
       -0.05455865 0.055464156 -0.031772144 -0.0028982637
0001d0 ee 3a 43 3c 52 e6 8f 3d 31 ef 3c 3d df e2 17 bd
       0.011915905 0.07026352 0.04612655 -0.037081596
0001e0 0f 9c 4a 3d 89 cf a9 bd 47 db ad bc c2 1f e4 ba
       0.049465235 -0.08291537 -0.021222724 -0.0017404484
0001f0 ff e1 c6 3c 8d fd 46 bd 5d 68 23 3c 3f a7 3f 3d
       0.024277685 -0.04858165 0.009973613 0.046790358
000200 a9 32 22 3d 75 aa 26 bd 91 ff 62 bd fd c1 81 3d
       0.039599095 -0.040689904 -0.05541951 0.063358285
000210 ce 74 92 bc 31 01 85 3d 82 ee 67 3d 33 05 18 3d
       -0.017877962 0.06494368 0.056623943 0.037114333
000220 c2 d9 82 bd d0 05 c2 bc 57 bd 88 3d 09 e0 72 bd
       -0.0638919 -0.023684412 0.06676739 -0.059295688
000230 f6 ef 8b bd d0 78 4e 3d e8 f1 6e 3d cf 3d 4c 3d
       -0.06832878 0.050408185 0.05833617 0.049863633
000240 00 dd ae bc 01 a3 37 3d 7b ab 89 bb 4e c2 97 bd
       -0.021345615 0.044833187 -0.0042013503 -0.074101076
000250 09 7c 9d bd 9d d6 89 bd 1a 11 25 bd bd a5 ae bc
       -0.076896735 -0.06730387 -0.040299512 -0.021319265
000260 79 aa a0 3d 3a 47 8e 3b 23 fa 58 bd 24 87 33 3d
       0.07845015 0.004341987 -0.052972924 0.043830052
000270 0b 7f 91 3c d8 3c a7 3d e3 50 03 3d 4e cf b1 3a
       0.017760774 0.08165902 0.03205956 0.001356581
000280 c6 4d 4c bd c7 cb 04 bd f7 1a a0 bd 3f f8 8d bc
       -0.049878858 -0.0324209 -0.07817643 -0.017330287
000290 cd fc 8d 3c 5b 29 53 bd a2 81 8b 3d 03 6b 13 3d
       0.017332459 -0.05155311 0.06811835 0.035990726
0002a0 77 49 78 bc 60 d1 ee ba e8 89 6a bc c3 91 27 bd
       -0.015154234 -0.0018220358 -0.014315106 -0.040910494
0002b0 88 16 a1 3d a9 0a 47 3d 3b 5b dd 3c 6f ec 82 bc
       0.078656256 0.04859415 0.027021041 -0.015981881
0002c0 5b 9d 93 bd 7d b4 8a 3d af 92 a3 3d 25 f3 4b 3c
       -0.072077475 0.06772707 0.07986962 0.012448107
0002d0 5d 8c 9b bd 2e f8 9d bd 69 79 0a bc 55 1f 9b 3d
       -0.075951315 -0.07713352 -0.008451798 0.075743355
0002e0 4d e0 94 bd 0b 95 86 bd 69 c6 3b bd 11 df 93 bd
       -0.072693445 -0.065713964 -0.045843516 -0.07220281
0002f0 0c 1e 95 3d 14 70 6d bd 1a ec 6e bd 26 f2 4a bd
       0.072811216 -0.057968214 -0.058330633 -0.049547337
000300 aa fe a5 3d 95 f6 77 bd 41 20 c6 3c 3a 36 8a 3d
       0.08105214 -0.060537893 0.024185302 0.06748624
000310 83 3a 0b 3d a3 be b1 3c 5f 54 93 bd 58 fd 30 bc
       0.033991348 0.021697348 -0.07193827 -0.010802589
000320 28 a9 a6 3d 27 3d 1f bd 62 60 b0 bc db fa 45 bd
       0.08137733 -0.03887668 -0.021530334 -0.048334938
000330 e5 b9 10 bd 2d 6e 4c bd 41 ca 12 bd 69 59 eb 3c
       -0.035333533 -0.04990976 -0.035837416 0.028729158
000340 37 dd 99 bc 6b 30 7d bd fb ee 79 3d 1d 81 a5 3d
       -0.018782241 -0.061813753 0.061018925 0.08081267
000350 93 42 f9 bc 5b e2 1d bb ee c2 31 bd 3a b1 02 bd
       -0.030427253 -0.0024091217 -0.04339879 -0.031907298
000360 bd da b1 bb 50 24 81 bd ad 9a c0 3c c7 35 87 bc
       -0.005427687 -0.06305754 0.023511255 -0.016505135
000370 35 6c 75 3d 6a cf 35 bd e8 6c 55 3d 64 dc ef bc
       0.059917647 -0.04438726 0.052105814 -0.029279895
000380 aa c9 32 3c ba 06 54 bd d6 e6 76 3d 82 43 87 3d
       0.010912338 -0.051764227 0.060278736 0.06604673
000390 68 ce 24 bd a9 35 a0 3d e3 2b 8f bd b9 96 a5 3b
       -0.040235907 0.07822735 -0.069907926 0.005053368
0003a0 d9 1c 71 3d 72 eb 03 3c fa 21 7b 3d 79 bf 0a bc
       0.058865402 0.00805174 0.0613117 -0.008468502
0003b0 3a 9f 3c bd 8a 3f 77 bd 8d e8 f2 3c 8d ab 35 3d
       -0.046050288 -0.06036333 0.029651904 0.044353057
0003c0 67 0c 54 bc 98 dd 9c bd 1d 23 63 bd 16 65 7d bd
       -0.01294241 -0.07659453 -0.05545341 -0.06186398
0003d0 9b 9d 3f bd fc fa 9c bd 2d 22 82 3d 25 d2 8c 3d
       -0.046781164 -0.07665059 0.06354175 0.068760194
0003e0 02 ab ab 3b 46 d7 a2 3d 27 60 b8 3c 09 a3 14 bd
       0.0052388916 0.079512164 0.022506787 -0.036288295
0003f0 24 06 51 bd 07 0f a8 3d 71 23 30 bd 4c 03 db bb
       -0.051031247 0.08205991 -0.04300255 -0.0066837426

conv3_1.0.bias f4 [16]
000000 6c 32 4c 3d 88 1e 45 bd 45 f8 77 3d f7 90 6f bd
       0.049852774 -0.04812482 0.060539503 -0.05848786
000010 9c 1e 3a bd 36 3e 8d bd e2 c9 14 bd 24 e8 80 bd
       -0.045439348 -0.068966314 -0.036325343 -0.06294277
000020 2b 3e 95 bd f2 85 9d 3b fb d9 85 3b 89 14 82 bd
       -0.07287248 0.0048072273 0.004084823 -0.06351573
000030 0c 1f 94 3d 4c c0 35 3c c9 23 8e 3d 53 dd 89 bd
       0.07232484 0.01109321 0.06940419 -0.06731667

conv3_1.1.weight f4 [16]
000000 04 b5 7f 3f 98 28 80 3f aa 2b 80 3f 05 b3 7f 3f
       0.9988558 1.0012388 1.0013325 0.9988254
000010 00 b9 7f 3f ab 22 80 3f a8 ba 7f 3f c4 c3 7f 3f
       0.9989166 1.001058 0.9989419 0.9990809
000020 80 c0 7f 3f 79 24 80 3f e9 b2 7f 3f 34 b7 7f 3f
       0.99903107 1.001113 0.9988237 0.9988892
000030 9e be 7f 3f 7c 29 80 3f b5 28 80 3f 3f d0 7f 3f
       0.99900234 1.001266 1.0012423 0.99927133

conv3_1.1.bias f4 [16]
000000 0d 87 9d ba 97 8d a0 3a 3a 84 ac 3a 19 a4 9e ba
       -0.0012018398 0.0012249228 0.0013161965 -0.0012103348
000010 87 e0 8a ba fc 24 8b 3a ab c7 8b ba ea f9 77 ba
       -0.0010595479 0.0010615881 -0.0010664364 -0.00094595423
000020 aa 4d 81 ba e1 1e 94 3a 12 53 9c ba 83 9d 90 ba
       -0.0009865065 0.0011300707 -0.0011926612 -0.001103327
000030 26 66 90 ba 05 51 a2 3a c9 e4 a0 3a b4 75 40 ba
       -0.0011016771 0.0012383765 0.0012275215 -0.0007341758

conv3_1.1.running_mean f4 [16]
000000 d3 c0 03 3f 3b 83 4a be 4d ab 15 3e f7 79 2b be
       0.514661 -0.19776623 0.14616127 -0.16745745
000010 3f e2 89 3d 81 68 2f 3e 09 81 bf 3e 84 a7 7f be
       0.06732606 0.17129709 0.37403134 -0.24966246
000020 53 3f d3 3d 8a ac 4e 3f e9 d4 8f bd e3 f7 6e bd
       0.103148125 0.80732024 -0.07023031 -0.058341872
000030 dd 8a e1 3e 0f 12 da bc 18 d6 11 3e 3a df 55 be
       0.44051257 -0.02661994 0.14241827 -0.20885935

conv3_1.1.running_var f4 [16]
000000 c7 c2 b7 3d 98 c7 87 3e e2 52 92 3d 9b f5 29 3d
       0.08972698 0.26519465 0.07144715 0.041493993
000010 88 a7 1a 3d 35 93 55 3e ed 4e 50 3d 81 d0 8c 3d
       0.037757427 0.20856936 0.05085652 0.068757065
000020 06 fb 8f 3d 80 fd 36 3e d5 3d 7d 3d 21 cb 35 3d
       0.07030301 0.1787014 0.061826546 0.044383172
000030 d0 f6 47 3d dd d3 55 3d 72 af b7 3d 2f 31 13 3e
       0.048819363 0.052204 0.089690104 0.14374231

lstm_1.weight_ih f4 [128, 16]
000000 22 7b c8 bd a1 2a d8 bc 2b f0 af 3d 0e 77 09 3d
       -0.09789111 -0.026387515 0.0859073 0.033560805
000010 0e 96 f3 bd c5 2b ad bb 75 f1 a7 3d 35 1c 05 3e
       -0.11893855 -0.0052847588 0.08200351 0.12999041
000020 95 90 d1 bd 1a da ce 3d 16 90 f3 bd 33 64 a4 3c
       -0.10232655 0.10100193 -0.118927166 0.02006731
000030 51 52 91 bd ee 76 07 be e0 93 0e 3e 9c 60 23 be
       -0.07095779 -0.13228962 0.13923597 -0.15954822
000040 22 68 2a 3e 1f cc 0f 3c 2f fa 08 be 6c f1 c3 bc
       0.16641286 0.008776694 -0.13376687 -0.02391883
000050 68 f0 a9 bd ee 9a a1 bd f5 cc 93 3d 38 94 03 be
       -0.08297807 -0.078908786 0.07216827 -0.1284951
000060 09 92 40 3d 40 a2 d7 bc d4 2d 0e bd 7e 3e 22 bd
       0.04701427 -0.026322484 -0.034711674 -0.03961038
000070 cb 6d 68 bd 3e 4f 97 3d d0 98 d9 bc 9a bc 3b 3d
       -0.05674533 0.07388161 -0.026562124 0.04583416
000080 a7 2b cd 3d 04 fb 23 3e cd d8 37 b9 9b 45 31 be
       0.10018092 0.16013724 -0.00017533005 -0.17311709
000090 b0 2c f5 3d 3f 4e ea 3c d6 ab 10 3e bb 61 15 3d
       0.11971414 0.028601764 0.1412805 0.036470156
0000a0 42 de fd bc a1 ff 42 bd 7c ed d0 bd 0a 68 d7 3d
       -0.03098977 -0.047607068 -0.102015465 0.10517891
0000b0 0f b4 9a bd 61 62 11 be fc 4a 03 3e 02 f7 86 bc
       -0.07553875 -0.14197685 0.12821573 -0.016475204
0000c0 56 7b 5a 3d 13 50 1c be 57 f0 3b 3d 54 54 4e bd
       0.05334028 -0.15264921 0.045883503 -0.05037339
0000d0 a4 6b 96 bd d5 57 dd bd d6 dc 6e bd 9e f8 a1 bb
       -0.073447496 -0.10807768 -0.058316074 -0.0049429676
0000e0 ee 00 1b 3d a0 b7 99 3d 12 5a df bd 94 e0 f7 3a
       0.037842683 0.07505727 -0.109058514 0.0018911534
0000f0 cc 0a 54 bd 89 13 a4 bb f9 13 98 bd 5f 5a 82 3b
       -0.05176811 -0.0050072116 -0.074256845 0.003978058
000100 65 d3 06 3e 72 5a 9c bd fb 16 28 be 8d 28 83 bd
       0.13166578 -0.076344386 -0.16415016 -0.06404219
000110 62 23 04 3e e4 b0 01 be d6 e0 6e 3d 7d ea 09 be
       0.12904122 -0.12665135 0.05831989 -0.13468356
000120 f1 9e 10 3e 37 92 52 3b 1d 51 c7 bd 6c f8 7f ba
       0.14123131 0.0032130608 -0.09732268 -0.0009764496
000130 ce 04 8c 3d 9e 22 e2 3d 1e 6b f1 3d fd 22 db bd
       0.06836854 0.11041759 0.11788009 -0.10700033
000140 5f c4 01 3d 8e 25 2a be 27 8e 02 be ef d9 33 bd
       0.031681415 -0.16615888 -0.1274954 -0.04390901
000150 30 f1 d8 bd b7 33 30 3e 40 db 99 3b 43 48 1a 3d
       -0.10592878 0.17207228 0.004695326 0.03766657
000160 27 83 b7 bd 76 46 2f 3d 1c aa 05 be ce dc 0b 3b
       -0.08960562 0.042791806 -0.13053173 0.0021341327
000170 0e d0 22 be 1c 31 48 3d e4 00 0f be 37 ae b7 bd
       -0.15899679 0.04887496 -0.13965183 -0.08968776
000180 c9 f9 ac bd 17 80 0c be 00 6b 33 be b9 22 22 3e
       -0.0844608 -0.13720737 -0.17521286 0.15833558
000190 47 e4 0c bd 28 4f 2c be 00 65 cf bc ea 26 14 3e
       -0.03439739 -0.1682707 -0.025316715 0.1446797
0001a0 f7 fd 90 3d 75 6f 7d bd 88 d6 93 bd cd 1e 13 3e
       0.0707969 -0.06187387 -0.07218653 0.14367218
0001b0 76 3b 41 3d 57 78 07 bc 86 91 22 bd 6b 77 43 bd
       0.047175847 -0.008268437 -0.039689563 -0.047721308
0001c0 b7 02 d7 3d 89 7a 83 3d f9 01 d6 bd 3d 6f 04 3e
       0.10498565 0.06419856 -0.10449595 0.12933059
0001d0 7e 48 fd bd 02 f6 2c be e6 02 41 3b 24 2c 8e bd
       -0.123673424 -0.1689072 0.002945119 -0.06942013
0001e0 57 e7 6c bd 89 3b 75 3d a1 5c 98 bd 15 88 15 3e
       -0.05783781 0.05987123 -0.074395426 0.14602692
0001f0 4c 8e df bd 64 34 00 be 0b 85 e4 bc d7 f2 81 bd
       -0.10915813 -0.12519985 -0.027895471 -0.06345146
000200 b2 7e 6b 3d 48 4b ac bd 26 51 2d be b2 16 a4 3c
       0.057493873 -0.08412796 -0.16925487 0.020030353
000210 21 09 e9 bd 99 23 30 3d c0 45 9d bc 14 04 a9 3d
       -0.11378694 0.0430027 -0.019198298 0.08252731
000220 18 47 0a 3e 4b 58 0f be b1 c1 1d 3d ff d6 19 3d
       0.13503683 -0.13998525 0.038514797 0.037558552
000230 73 9c 03 3d b2 13 4d bd e0 09 f1 3d 7c e0 b0 bc
       0.032131623 -0.05006761 0.11769462 -0.021591417
000240 6f c6 25 3e c7 21 34 be a2 13 ba bb 80 a8 1a be
       0.16188978 -0.1759101 -0.00567861 -0.1510334
000250 70 7b db bd 68 f5 0b be 29 59 f7 3c fb cc a6 bd
       -0.10716903 -0.13667834 0.030193882 -0.08144566
000260 f0 76 a9 3d ba 56 2b 3e c4 83 2b be 08 e6 71 39
       0.08274639 0.16732302 -0.16749483 0.00023069244
000270 63 4e 52 3c c6 3a 1d bd c2 af 24 be fd ab 29 3e
       0.012836072 -0.03838613 -0.16082671 0.16569515
000280 b1 18 1c 3e c9 71 25 3e 7f 6d af bc bd 08 11 3e
       0.15243794 0.16156687 -0.021414516 0.1416349
000290 c4 26 53 3d dd 5e 9f 3d e5 eb 7a 3d 8e 35 d9 3d
       0.05155064 0.077817656 0.061260123 0.10605918
0002a0 63 9a 36 3d 31 06 ff 3c 6e 28 91 3d 58 90 e4 bd
       0.04458083 0.031130882 0.070877895 -0.11160344
0002b0 ec d6 00 be 3a 00 f8 3d d0 56 6d 3d 91 e1 1d 3e
       -0.12581986 0.12109418 0.05794412 0.15418078
0002c0 04 91 13 bd 0e 07 25 be 60 2b c9 3d d3 f9 7c bd
       -0.03602697 -0.16115972 0.09822726 -0.06176169
0002d0 de 85 0c be ad e5 45 bd 3d c2 a5 3c 6b 16 60 3d
       -0.13722941 -0.04831474 0.020234222 0.05470888
0002e0 40 e2 d9 bd 89 58 19 3e 6e ff 28 be ef 1d b6 bc
       -0.10638857 0.1497518 -0.16503689 -0.02223107
0002f0 7a f6 74 bd 6c 7f b6 3d f7 5d b9 3d cd 04 c5 bd
       -0.05980537 0.089110225 0.090511255 -0.09620056
000300 cf 08 a2 3d b5 38 f5 3d 1a 39 0e be f3 38 6e bc
       0.07911836 0.11973707 -0.1388897 -0.014539945
000310 8a 37 af 3d 73 95 12 bd 46 95 30 3e 4c af 8e 3d
       0.08555515 -0.035787057 0.17244443 0.06967029
000320 dc 85 f5 bd 61 e2 ba 3c 8e f2 14 bd 9c 7e 33 be
       -0.11988422 0.022813024 -0.03636413 -0.17528766
000330 86 1d 84 bc e3 4d ec bd 5e b1 1a be f4 fa 1d be
       -0.01612736 -0.11538293 -0.15106723 -0.15427762
000340 a0 12 15 3e 38 07 15 bd ed 6f 8a 3b 0a 17 10 3e
       0.14557886 -0.036383837 0.0042247684 0.14071289
000350 56 14 8e bd 2f 81 79 bd 3a 36 67 3d a9 5c 6a 3c
       -0.069374725 -0.060914215 0.0564482 0.014304318
000360 4d 8d 14 3e 25 51 04 3e 2a d2 fc 3d ca c3 7d bc
       0.14507027 0.12921579 0.12344773 -0.015488574
000370 fd 1b b0 bd 76 dc 11 3e 82 d7 25 be 69 83 af 3d
       -0.08599088 0.14244255 -0.16195491 0.085699864
000380 f5 9d bc 3c 23 2f e7 bc 27 64 58 3c 64 40 38 3d
       0.023024539 -0.028220719 0.013207472 0.044983283
000390 a0 45 45 3d 81 80 4b 3d ae 2d 10 3d 64 c1 33 3e
       0.048162103 0.049683098 0.035199814 0.17554241
0003a0 95 87 0d 3e 14 84 31 3e 0c 5e 51 3d 58 76 42 3d
       0.13821252 0.1733554 0.05111508 0.047476143
0003b0 b9 e9 9b bd c1 20 af bd 96 d8 cb 3d 64 5a 38 3b
       -0.076129384 -0.08551169 0.0995342 0.002813005
0003c0 f3 b7 25 be b7 3e 81 bc bd 83 ff bd 25 46 ad 3d
       -0.16183452 -0.015776975 -0.12476299 0.08460645
0003d0 db 30 dc bd 42 40 8c bd 36 63 9f bc b8 c0 de 3d
       -0.10751506 -0.06848194 -0.019456487 0.10876602
0003e0 02 1a 01 be 1b 4d 0a 3c 25 cb 4d bd ad 8f 83 bc
       -0.12607577 0.008441235 -0.05024256 -0.01605972
0003f0 66 88 32 be ab 8e 0d be 0a bf d7 3d 60 53 d9 3d
       -0.17434844 -0.13823955 0.10534485 0.10611606

lstm_1.weight_hh f4 [128, 32]
000000 c9 93 0f 3e 73 11 13 3e 20 20 29 bc ca a3 f1 bd
       0.1402122 0.14362125 -0.010322601 -0.117988184
000010 68 be 22 3d 72 d0 b9 3d 53 1f 27 3e 2f 0e 21 3e
       0.039732367 0.09072961 0.16320543 0.15728067
000020 f4 0d ec bd e0 e7 b7 3b 1c 25 7c 3d 88 60 51 3d
       -0.11526099 0.0056123585 0.061558828 0.05111745
000030 65 28 23 be 31 75 1b be 7a 40 9d 3d b0 7b 24 bc
       -0.15933378 -0.15181424 0.076783136 -0.010039255
000040 17 79 25 3e 64 da 21 be 2b 8b 0d 3e a0 77 ff 3b
       0.16159473 -0.15805966 0.1382262 0.007796243
000050 1b 02 07 3e 80 4f fb bd d6 ec 23 be 31 7b aa bd
       0.13184397 -0.12271023 -0.16008314 -0.08324278
000060 72 48 ac 3d 16 89 c1 3d f0 8d 5a 3d d0 ef 0e bc
       0.08412255 0.09449975 0.05335802 -0.008724168
000070 fd 17 cc bd c0 78 ca 3c 07 7d fe bd e0 f6 e0 bd
       -0.09965513 0.024715781 -0.12426191 -0.10984588
000080 bb f5 1c be 46 79 ae bd 8c f0 32 bd d5 1b 2b be
       -0.15328114 -0.08519225 -0.043686435 -0.16709836
000090 d4 57 15 3d 6c 67 41 3d 7a b4 e7 3d 00 44 10 3c
       0.036460713 0.04721777 0.1131372 0.008805275
0000a0 91 e9 15 3e 60 dd c2 bc 29 77 12 3e 62 0f 96 3d
       0.1463988 -0.0237872 0.14303268 0.07327153
0000b0 39 1e 0a 3e 90 ff 1f be 31 e5 2a be be 85 ee 3d
       0.13488092 -0.15624833 -0.16688992 0.11646603
0000c0 c0 51 79 3d e0 19 c2 bd 7c c8 31 bd dc 9b 1e 3d
       0.06086898 -0.094775915 -0.043404087 0.038722858
0000d0 7e 8b e3 3d 85 5a e1 bd 36 33 a0 3d 4a fa fc 3d
       0.111105904 -0.11003593 0.07822268 0.12352426
0000e0 fc 2b 40 bd c4 48 0c bd ae 33 96 3d 0a e2 2e be
       -0.046916947 -0.034249082 0.07334076 -0.17078415
0000f0 1c 30 52 3d 5a f8 ec 3d 76 41 97 3d be 72 69 bd
       0.051315412 0.11570807 0.073855326 -0.056994192
000100 d8 e3 31 3d a7 53 28 3e 30 03 85 3d 0b 37 32 3e
       0.04343018 0.16438161 0.064947486 0.1740381
000110 1d de b2 bd 43 c9 82 bd eb 34 29 be 18 0f a2 bc
       -0.08733771 -0.06386044 -0.16524093 -0.019782588
000120 00 71 47 3b f8 ae 56 bd 81 e1 e5 bd e3 e7 1b 3e
       0.0030432343 -0.052412957 -0.11224652 0.15225177
000130 18 80 7c 3d 65 7c b1 bd 58 45 a5 3c 56 f1 09 be
       0.061645597 -0.086663045 0.020174667 -0.13470969
000140 9a 61 a7 3d 1f 2e 25 be 0e 22 6b bd 18 8d 08 be
       0.08172913 -0.16130875 -0.057405524 -0.13335073
000150 20 5c 18 3d e0 b6 14 3d 69 85 dd bd f1 35 80 bd
       0.037197232 0.036307216 -0.108164616 -0.062602885
000160 dd 29 11 3e 80 8d 85 ba 8c b2 17 be 61 fe 1a be
       0.14176126 -0.0010189265 -0.14814204 -0.151361
000170 cb 46 15 3e e1 f4 85 bd b0 b8 23 3c ce 2e 96 3d
       0.14577787 -0.065408476 0.009992763 0.07333146
000180 c2 ac f5 3d 54 ee 1f 3d 0e c9 f2 3d dc 80 09 3d
       0.119958416 0.039045647 0.118547544 0.033570156
000190 c3 bc 0b 3e 58 2e 1d be da 0a 8f bd 2e 37 b2 3d
       0.13646226 -0.1534971 -0.06984492 0.08701931
0001a0 38 d2 f0 bc 68 94 3e bd dd 44 1c 3e 0d 05 e1 bd
       -0.029397115 -0.04652825 0.15260644 -0.109872915
0001b0 10 1e 60 3d 4c 7c 0b 3d 74 ba 74 bd 58 06 ff bc
       0.05471617 0.034054086 -0.059748128 -0.031130955
0001c0 53 6e 13 3e 26 fa fe 3d 27 5a ab bd 78 24 43 3d
       0.14397554 0.12450056 -0.083668046 0.0476422
0001d0 a5 26 24 3e 73 b4 0a be 24 43 2d be 8d 54 e0 bd
       0.16030367 -0.13545398 -0.16920143 -0.10953627
0001e0 15 71 34 be d0 59 2c 3c 67 36 02 3e 82 32 9e 3d
       -0.17621262 0.01051946 0.12716065 0.07724477
0001f0 89 cf 23 be 1d 3e 25 3e 72 65 28 be 03 22 10 3e
       -0.15997137 0.16136976 -0.16444948 0.14075474
000200 a8 6a 2f 3d 09 82 03 3e 1b e1 23 3e d2 24 d1 3d
       0.042826325 0.12842573 0.1600384 0.10212101
000210 65 9a 13 3e 56 94 bc 3d aa 41 fa 3d f4 bf 7c 3d
       0.14414366 0.0920798 0.12219556 0.0617065
000220 ff ee 03 3e 9e 18 fd 3d 7a df d4 3d da 18 fe 3d
       0.12884139 0.12358211 0.10394187 0.12407084
000230 65 c7 17 be 20 5d 5c 3d 78 b5 e2 bc 48 84 04 be
       -0.14822157 0.05379975 -0.027674422 -0.12941086
000240 8b 7c 06 be 2e 85 c8 3d c0 69 ee bc be 07 02 be
       -0.13133447 0.09791027 -0.02910316 -0.12698266
000250 64 29 05 bd f0 00 a5 bc b2 77 6d bd 5a dd a5 3d
       -0.032510176 -0.020142049 -0.05797548 0.0809886
000260 85 a5 12 be cf 11 8b bd a2 2f f1 3d 44 c9 23 bd
       -0.14320953 -0.06790506 0.11776663 -0.039986864
000270 ce e1 cd 3d af 43 8b bd f1 fa 24 be 92 a3 f2 bd
       0.100528345 -0.06800019 -0.16111352 -0.11847605
000280 26 54 5a bd 63 9b 10 be 01 1d 32 3e e8 af 27 bd
       -0.053302906 -0.14121775 0.17393877 -0.04093924
000290 e0 63 c2 bb b0 f9 e3 bd 10 98 a0 bc b0 cf af bd
       -0.005932316 -0.111316085 -0.019603759 -0.08584535
0002a0 69 37 22 3e 90 36 03 3c 1c 00 02 be 47 02 1e 3e
       0.1584145 0.008008614 -0.12695354 0.15430556
0002b0 da 47 a7 3d fd a0 b7 bd 68 09 e4 bc 76 5b fa 3d
       0.081680015 -0.08966253 -0.027836516 0.12224476
0002c0 a3 ba 21 be f5 ad 19 3e a0 41 24 bd d5 26 d5 bd
       -0.15793853 0.15007766 -0.040101647 -0.10407797
0002d0 d1 22 19 be bf 3f 85 bd 52 5a 34 be 3b cb 15 3e
       -0.14954688 -0.06506299 -0.1761258 0.14628308
0002e0 9f c8 22 3e 58 98 ab 3c 0c 44 26 3d e8 9b ce bd
       0.15896843 0.020946667 0.04059224 -0.100883305
0002f0 27 b4 1f be e0 21 f6 bd 2c 1e ad bd d8 9c 85 bd
       -0.15596066 -0.1201818 -0.084530205 -0.06524056
000300 98 dd 44 bd d0 78 52 3d ff 9c 0f 3e c6 1e cd 3d
       -0.04806289 0.051384747 0.14024733 0.10015635
000310 52 7b f4 3d 80 e3 ba 3a 47 59 f3 bd 02 e3 d7 3d
       0.11937584 0.0014258474 -0.11882263 0.10541345
000320 25 39 33 3e e4 aa 08 bd 9e 7c 1d be 80 ab 9a 3c
       0.17502268 -0.0333661 -0.15379569 0.018880606
000330 7e 6b ad 3d 0a 0a 94 3d f0 51 46 bc 47 f5 03 3e
       0.08467768 0.07228477 -0.012104496 0.12886535
000340 f8 01 ce bc f2 f0 6c bd 94 ab 21 be df 72 2b 3e
       -0.025147423 -0.05784697 -0.15788108 0.16743039
000350 ae 39 ed bd 59 b7 2a 3e b2 4a d6 3d 53 df 0a be
       -0.11583267 0.16671504 0.10463466 -0.13561754
000360 1e a3 af bd db 26 d5 bd 84 28 4b 3d 84 e2 5c 3d
       -0.08576034 -0.10407802 0.049599186 0.05392696
000370 e0 2c 60 bd c2 bd 87 3d d2 8e e5 3d c0 a2 be bc
       -0.054730296 0.0662799 0.112088814 -0.023270965
000380 d6 ea a8 3d 10 a9 f2 bd 76 d7 fe bd b4 c1 4e 3d
       0.082479164 -0.11848652 -0.1244344 0.0504777
000390 71 c0 1c 3e 90 ff de bc b4 44 2c bd 26 7c cf bd
       0.15307786 -0.027221471 -0.042057708 -0.10131101
0003a0 9f e9 1e be 9e 4e 2c be 07 aa ca bd eb 13 ee bd
       -0.15518807 -0.16826865 -0.098957114 -0.11624893
0003b0 30 e4 fc bd 58 15 b5 bd 6b dd 18 3e 91 c8 2e be
       -0.12348211 -0.088419616 0.14928214 -0.17068698
0003c0 80 39 77 3d b8 47 88 3d 3d 6e 00 3e d6 52 aa 3d
       0.06035757 0.06654304 0.12542053 0.08316581
0003d0 80 ac ef 3a 28 74 0b be 89 36 27 be 77 0b 87 bd
       0.0018285662 -0.13618529 -0.16329397 -0.065939836
0003e0 ea 58 e4 3d 64 de 1c be 2a 40 b4 3d 49 f3 01 3e
       0.111497715 -0.1531921 0.08801301 0.12690462
0003f0 fc 97 23 bd 2e ac c5 3d 8a b2 c0 3d 4e ff 08 be
       -0.039939865 0.09651981 0.094090536 -0.13378641

lstm_1.bias_ih f4 [128]
000000 62 0a a6 bd 72 82 4e 3d 82 1e ce bd 0a 12 0a 3d
       -0.08107449 0.05041737 -0.10064413 0.03370861
000010 89 3c c7 3c 56 a1 cb bd 4b 09 6a bd 9b 4b 99 bd
       0.024320858 -0.09942882 -0.05713777 -0.07485124
000020 c9 5a d3 bc 33 4a 20 3b a8 57 bb bc f7 c9 33 be
       -0.025800126 0.0024458289 -0.022868946 -0.17557512
000030 4f c5 0b 3e 0e b3 63 bd 6f 57 08 bb fc bb f9 bd
       0.13649486 -0.05559068 -0.0020804068 -0.12194058
000040 06 2e be 3c ff a6 b1 bd e6 a4 8d bb 18 26 87 bd
       0.023215305 -0.0867443 -0.004322636 -0.06599063
000050 61 aa 33 bc 78 51 3e 3d bf ff 06 be e3 f8 13 3e
       -0.010965914 0.046464413 -0.13183497 0.14450411
000060 4d 27 ff bd 55 1f 01 be 1c 4d 91 bd e5 7e 77 bb
       -0.12458668 -0.12609608 -0.070947856 -0.0037764844
000070 0f 4e 22 3e 99 a8 13 3e fd 61 e2 3c f2 fc 05 bc
       0.1585009 0.14419784 0.027634615 -0.008177983
000080 c5 7e 10 3e 88 5f f1 bd 80 6c b8 bc 18 67 94 3d
       0.14110859 -0.11785799 -0.022512674 0.07246226
000090 84 12 0c be ea a3 04 be 05 cb 08 3e d6 78 59 bd
       -0.13678938 -0.12953153 0.13358696 -0.053093754
0000a0 4a 1e fc 3d ae 72 94 3d 38 f6 ff 3c 51 62 31 3e
       0.12310465 0.07248436 0.031245336 0.17322661
0000b0 d4 4d 4f bd 2e c0 91 bd 2c 09 18 3d 08 4c 1d bd
       -0.050611332 -0.071167335 0.037118122 -0.038402587
0000c0 f6 0e 89 3d 8a b8 b4 3d c8 3c b1 3c e8 2d 38 3d
       0.06692307 0.088242605 0.021635428 0.044965655
0000d0 79 32 13 3e f8 cf c7 bc f0 5c 75 bd af 77 12 be
       0.14374723 -0.02439116 -0.059903085 -0.14303468
0000e0 7a 34 c2 3d 70 2b 74 bc 89 55 04 be 16 9d e8 3d
       0.09482665 -0.014902934 -0.12923254 0.11358087
0000f0 96 7b 99 3d d4 c5 05 be 0a 02 86 3d 8e 5b ae 3d
       0.07494275 -0.13063747 0.06543358 0.085135564
000100 6b 69 0e bd 95 1b 6b 3d 6e a8 af bd 7e a7 40 3d
       -0.034768503 0.05739935 -0.08577047 0.047034733
000110 ba b2 ae bd 67 06 f9 3d 62 64 31 be 1c b1 ba bd
       -0.08530183 0.12159424 -0.17323449 -0.09115812
000120 f2 94 0a 3e 19 ed ff bd 43 a7 c1 3d 9a ee 4b bd
       0.1353338 -0.12496395 0.09455731 -0.049788095
000130 c9 53 d9 3d e8 75 d4 3b cf f2 50 3d a2 dc ce bd
       0.10611684 0.006483782 0.05101281 -0.10100676
000140 61 45 c3 3d 8f 85 2f 3e e6 69 02 3e 20 99 12 3d
       0.09534717 0.17140792 0.1273571 0.035790563
000150 a7 83 ec 3d cb 6b e9 bd 4e 25 12 3d 54 28 e7 bc
       0.11548548 -0.11397513 0.035680108 -0.028217472
000160 11 40 f7 3d e6 4d 22 3e 4b 46 03 3e 9a 3c 33 be
       0.120727666 0.15850028 0.12819783 -0.17503586
000170 4d 8d f4 bd c6 9c 82 3d 74 46 02 be cd 47 f5 bd
       -0.119410135 0.063775584 -0.12722188 -0.119765855
000180 56 27 e0 bd 6e e5 d4 bd 37 17 a8 3b 0f 75 fd bc
       -0.10945003 -0.10395323 0.0051297206 -0.030939607
000190 4b 1b f8 3d d2 32 3d 3a e4 00 d1 3d 41 55 30 be
       0.12114581 0.00072173506 0.10205248 -0.17220022
0001a0 c0 a8 aa 3c 26 b8 77 3d ca 79 d4 bd b1 15 23 be
       0.02083242 0.060478352 -0.10374792 -0.15926243
0001b0 24 9e 88 3d a0 67 31 be 56 f2 91 bd 96 bc 08 bd
       0.06670788 -0.17324686 -0.071263 -0.033382975
0001c0 17 02 23 be d5 32 52 3d d5 5f 4f 3d 95 c5 b4 3d
       -0.15918766 0.05131801 0.050628502 0.08826748
0001d0 55 c1 15 be ed f9 2a bc 01 3f b9 3d 4d d5 e7 3d
       -0.14624532 -0.0104355635 0.0904522 0.11319981
0001e0 23 db 17 be a8 4f 06 be 56 ba 10 be a8 70 6a bd
       -0.14829688 -0.13116324 -0.14133582 -0.057236344
0001f0 09 1c 00 3e 04 6c 59 3d 2f 4f 04 be 19 d5 90 3d
       0.12510695 0.053081527 -0.12920831 0.07071895

lstm_1.bias_hh f4 [128]
000000 5c 12 12 be 66 5b 8e 3c dc 68 0f 3d 0a 71 76 bd
       -0.14264816 0.017377567 0.03501211 -0.060166396
000010 a4 be 9d bd a8 a9 84 3d e5 f7 31 3d 7b e6 df bd
       -0.077023774 0.06477672 0.0434493 -0.109326325
000020 68 8b cd bd 4a 65 ee 3d b3 9c 14 3e ab db 72 3d
       -0.10036355 0.11640413 0.14512901 0.059291523
000030 60 d4 ab ba 3b c8 ce bd 97 79 02 3e 82 f6 1a 3e
       -0.0013109557 -0.10096785 0.12741695 0.15133098
000040 38 21 89 bd 42 04 f8 bd 98 e6 88 3d c6 06 cc bd
       -0.06695789 -0.12110187 0.06684607 -0.099622294
000050 65 59 a3 3d c2 a2 d9 3d 16 18 b2 bc 75 12 29 3e
       0.07976035 0.10626747 -0.02174 0.16510947
000060 34 71 43 bd d1 79 9f bd 5f 94 22 3e 8d 88 60 bd
       -0.04771538 -0.077869065 0.15876912 -0.054817725
000070 a0 76 38 bd f5 e8 c1 bd 9a 0c 4e bd fc 92 25 3e
       -0.045035005 -0.09468261 -0.050304987 0.16169351
000080 18 d4 83 3d 29 7d 88 bd 70 51 50 bd e0 7b 9f bb
       0.06436938 -0.066644974 -0.050858915 -0.004867062
000090 00 3b 30 3a e0 b6 06 bd 10 fc 62 bc ce 43 83 3d
       0.0006722659 -0.032889247 -0.013854042 0.06409417
0000a0 e9 8f 21 3e 0c 0e 32 be aa e6 82 3d 70 ee f4 bd
       0.15777554 -0.17388171 0.06391652 -0.11959541
0000b0 14 96 3b bd ba 36 a1 3d a1 eb 9a bd be 16 a6 3d
       -0.045797423 0.078717664 -0.07564474 0.081098065
0000c0 fd 28 96 bd 94 1b 5f bd ed 6f 04 be 96 d4 98 3d
       -0.07332037 -0.05446966 -0.12933321 0.074624225
0000d0 cd 3d 12 3e 20 ed 5b bd cc 23 6d 3d 7b d0 2e 3e
       0.14281388 -0.053692937 0.057895467 0.17071716
0000e0 a0 90 d1 bc 82 53 9a 3d a7 a4 21 3e 7a 15 a1 3d
       -0.025581658 0.07535459 0.15785466 0.078654245
0000f0 ee 78 dc 3d 30 3c d1 bd 7a 9f 2e be 1f 65 2c 3e
       0.10765253 -0.10216558 -0.17053023 0.1683545
000100 03 8d a6 3c b5 2c 0f 3d 90 08 61 3d e3 9a 8e bd
       0.020330912 0.034954745 0.054939806 -0.06963136
000110 9a 02 45 3c 6b 66 35 3d e3 e4 92 3d 1a 56 a7 bd
       0.012024546 0.044287127 0.07172563 -0.081707194
000120 f6 a8 d2 3d bf 26 a5 bc 7e 86 4b bd ee 2e 89 bd
       0.10286133 -0.020160077 -0.04968881 -0.06698404
000130 11 3e d6 3d df 41 02 be 41 81 d8 bd 1c e4 b5 bc
       0.10461057 -0.1272044 -0.10571528 -0.022203498
000140 db 64 58 3c 1c 0b f2 bd a0 94 c7 bd 1d 42 a6 bd
       0.01320764 -0.11818525 -0.09745145 -0.08118079
000150 00 d3 2f 3d 11 ab 83 3d 9d c4 94 3b b9 de 74 3d
       0.042925835 0.06429113 0.0045400397 0.059782717
000160 7d 2f 87 3d 8c 3c 30 be 07 bc 25 3e 43 6a 25 3d
       0.066008545 -0.17210597 0.16185008 0.040384542
000170 35 0e fe 3d ec 23 ee 3d 94 c8 e7 bd d1 c2 52 3d
       0.124050535 0.11627945 -0.11317554 0.051455323
000180 97 a9 25 be 52 9b e2 bd 17 9e 61 bd a8 50 74 bd
       -0.16177975 -0.11064781 -0.055082407 -0.059647232
000190 c9 f4 92 3c 60 a3 06 3e 6a 36 31 3e e6 95 ac 3d
       0.017938988 0.1314826 0.17305914 0.08427028
0001a0 b8 21 03 3e 8a ec e7 bd 3d 00 15 be f3 3d 1e bc
       0.12805831 -0.11324413 -0.14550872 -0.0096583245
0001b0 d7 36 09 be 2c 85 16 3e 6a 13 07 3e e0 02 24 be
       -0.13399826 0.14699239 0.13191 -0.16016722
0001c0 89 bf 93 3d 35 7c e9 bd ed 25 e0 bd b3 31 10 bd
       0.07214267 -0.11400644 -0.10944734 -0.035203647
0001d0 8b a6 df bd 12 3b 27 3d 0e 4d 05 be 46 a6 3e bd
       -0.109204374 0.04082782 -0.13017675 -0.04654529
0001e0 4b 06 e7 bc bd 35 87 3d 77 1f 49 bd fc 46 cd bd
       -0.028201243 0.06602047 -0.049102273 -0.10023305
0001f0 b0 aa 60 bd c0 a8 20 3e 77 c1 30 3e 51 f8 0c 3e
       -0.05485028 0.15689373 0.17261301 0.137666
